param/phase2/convection/sin_1/PINN_30_40_40.pt (torch, 42418 bytes, 12 tensors)

col_basis_0 f4 [50, 29]
00000000: 7735 1fbe c4ce a6bd 26c0 62bd 8cee 81bd
00000010: 78b4 e1bc 475f bcbd 065b b4bd 4bd1 b1bd
00000020: 421f bbbd 2096 d93d 3e9d c5bd 8583 b5bd
00000030: b377 343c 7149 a0bd bcb7 b7bd 6e00 6dbd
00000040: bc61 b5bd 633c 6cbd 044a 9ebd 0dbe 73bd
00000050: 7aa5 6abd 8112 35be fc74 c1bd 1766 a8bd
00000060: 3c68 b5bd eed3 5abd e340 c0bd 77e7 16be
00000070: ba6c d2bd 2209 1e3c e707 863a fa52 d8b8
00000080: 54bf 5e3b c5e0 66bb d63a b33c 30a9 d63c
00000090: ad8c 913c 07f3 a33c 5bc6 04bd 36c9 8b3c
000000a0: a877 e33c 0bd2 aebc 9e78 453c b112 613b
000000b0: d967 95bc 8b8c 753c 75f4 5f3b d3ce 5a3d
000000c0: 0b1e 843c ba1a 363c 1dd7 c23b 7481 723c
000000d0: 5632 2f3d 5948 713c 3811 c03b daf9 533b
000000e0: 9075 e73b 9c79 af3c 0930 1b3d ce01 d23c
000000f0: 5e1d 613c 04a5 f43c 5a99 b93c 2654 a93c
00000100: e07b d73c 0e65 b23c 9b8d 893c bccb 473e
00000110: ee0a c83c 6ce6 033d fab5 133c be5c ac3c
00000120: 5145 fd3c aa0d 123d 07e8 fc3c 6dcb d53c
00000130: af1f b3bc 1dba e73c a8da 673c 2cd0 213d
00000140: fa9d 1a3d 49ab cc3c 0d96 273d 11c3 893c
00000150: c1eb f83c 15cd 053d 8584 d33c 6af2 7c3d
00000160: a265 98bd a6ec 1dbd 0edc debc 3dbe 1f3d
00000170: cc80 39bd 64b8 acbd e7df 8abe fd76 5dbe
00000180: 25e4 063e 9f7f 263a 6cb8 993e e94f 0dbf
00000190: d2e0 60be eecc 56be 46f7 25bd 7c84 003b
000001a0: 9e82 f0bd 6dd5 a6be 3373 aebd 00e7 6cbe
000001b0: 072b 563e 1c17 56bc a2ed d7bc 2b5d e6bc
000001c0: 0aae 30be a7b7 88bd 8f93 723e 749d ba3c
000001d0: 0ed2 f33d d2e9 443d cced 153d 4b6a 3f3d
000001e0: 692a 8c3d e076 5a3d 21da 3d3d ee00 033d
000001f0: fc8c e43c c3ee edbd 0595 533d d3f8 cc3d
00000200: 59d9 a33d 3290 0f3d 4d23 343d edd3 913c
00000210: 55aa 4b3d 2e7f 2e3d 615e 643b 87af 2e3d
00000220: 875b a83c e695 9b3d f7c2 803d 9096 123d
00000230: f0b9 573d 30ee 903c 5ec1 4b3d ba50 643d
00000240: af20 993d 7036 0f3d f117 863c 60d3 e63c
00000250: 7b61 1a3c 519f ea3c 9ec3 c63b 0f50 bd3c
00000260: d5ab f83c a2c5 3a3c 98af 83ba b76d ee3c
00000270: 680c 423c d49d eb3c 7ca7 cc3c 56ce 023d
00000280: a03e afbb 181b e83c df8b 6c3c 6a06 4a3d
00000290: 8e50 e83c 520e e93c a92b ca3c 76b3 ae3c
000002a0: 9cae c63c 09b7 103d c7b1 063d adc2 8b3c
000002b0: b5e2 0a3d 7b8f 7b3c 570e f9bb 16c2 c63c
000002c0: abc6 d43b e682 2e3c 6c2e a63c fcf4 1cbb
000002d0: f49d 513c 8f77 e23b 5d09 093c 7a80 4a3e
000002e0: be80 c93b 5ee4 123c 8442 c93b a73a 003c
000002f0: 6fd9 613c 74ae 263c c36d 15bb e9a7 363c
00000300: f361 26bc d520 aa3b eec2 213c c55c 7fbc
00000310: ac1d 7a3b bd6f 2ebc 730c b33c c122 be3c
00000320: adf7 863c fe43 813c 197b fdbc 16f9 753d
00000330: c16f 323d 17be 1e3d 2fee 573d b83c 563d
00000340: 1fdd 0c3d 3ae6 193d cfb5 e83c 668a 213d
00000350: eeeb ebbd 56d8 483d 1f25 913d 387d f93c
00000360: 851a eb3c 105d 243d 81ba 5d3d 15b5 183d
00000370: 2dde 333d d0f2 e13c 3918 2b3d 5fff 083d
00000380: 7ada 693d 1dbc 6a3d 70f7 4a3d 0c6a da3c
00000390: f919 3d3d e958 593d 16e4 893d 08ce 3f3d
000003a0: e9bd 1d3c 8ef2 c9ba e521 c3b9 f059 e0b8
000003b0: 6c60 a0b7 c87d 793b 88ce 73bc 3531 993c
000003c0: 1841 be3a 9577 b0bd 99f7 ab3b 90f4 733c
000003d0: 3068 c23c b0f4 58bc 2b24 db3b 5b05 43bb
000003e0: bdee 863b c8e7 14bc ccd0 cc3c 1672 fd3b
000003f0: 69bc 413c 3f11 97bb 5d2e 22bc a05f 26bc
-0.15547739 -0.08144906 -0.05535903 -0.06344327 -0.027551875 -0.0919786 -0.08806424 -0.086824976
-0.09136821 0.10624337 -0.09649132 -0.08862976 0.011014867 -0.07826508 -0.089705914 -0.057861738
-0.08856532 -0.057674777 -0.07728961 -0.05950742 -0.057286717 -0.1768284 -0.09446141 -0.08222597
-0.08857772 -0.05342477 -0.09387376 -0.14736734 -0.10274644 0.009645732 0.0010225744 -0.00010315138
0.0033988552 -0.0035229188 0.021878641 0.026203722 0.017767275 0.020013345 -0.03241573 0.017063718
0.027767017 -0.02134039 0.012052683 0.0034343416 -0.018237995 0.014987121 0.0034172807 0.0534199
0.016127607 0.011114771 0.0059460537 0.014801372 0.042772613 0.014726722 0.0058614276 0.0032344968
0.007063575 0.021420293 0.037887607 0.025635626 0.013739912 0.029863842 0.022656132 0.020670008
0.026304185 0.021776702 0.016791156 0.19511312 0.024419274 0.03220217 0.009015555 0.021040317
0.030916842 0.035657562 0.030872358 0.026097978 -0.021865694 0.028286988 0.014151253 0.03950517
0.037748314 0.024984019 0.040914584 0.016816648 0.030385854 0.032666285 0.025820026 0.06175462
-0.0744126 -0.038555764 -0.02720454 0.038999785 -0.045288846 -0.08433607 -0.2712395 -0.21627422
0.13172968 0.00063514145 0.30023515 -0.5520006 -0.21960762 -0.20976612 -0.04051902 0.0019610217
-0.11743663 -0.32584706 -0.08518066 -0.23134995 0.20914851 -0.013067033 -0.02635843 -0.028120598
-0.1725389 -0.06675654 0.23689102 0.022780158 0.11905299 0.04807455 0.036603734 0.04673223
0.068440266 0.053336024 0.046350602 0.03198331 0.027899258 -0.11617806 0.051655788 0.10008397
0.0800044 0.035049625 0.043978978 0.01780125 0.04972299 0.042601757 0.0034846293 0.042647865
0.020551456 0.0759695 0.062871866 0.03578812 0.05266756 0.017691702 0.049744956 0.05574105
0.07476937 0.034964025 0.016368838 0.028176963 0.009422655 0.028640421 0.0060658 0.023109464
0.030355373 0.011399658 -0.0010046838 0.02910505 0.011843778 0.028761782 0.024982207 0.03193506
-0.0053480417 0.028333232 0.014437645 0.049322523 0.028358724 0.028449211 0.024679022 0.021325808
0.024253182 0.035330806 0.032884385 0.017060602 0.03390761 0.015354033 -0.0076005864 0.02426247
0.0064934096 0.010651326 0.020285808 -0.0023949733 0.012794007 0.006911225 0.008364049 0.19775572
0.0061493805 0.00896558 0.0061419625 0.007826484 0.01378475 0.010173429 -0.0022801019 0.011148431
-0.010155189 0.005191902 0.009873135 -0.015586083 0.0038164658 -0.010646758 0.021856522 0.023209931
0.016475523 0.015779492 -0.030942487 0.060052 0.043563608 0.038755503 0.052717384 0.052304
0.034390565 0.037573077 0.028407006 0.039438628 -0.115196094 0.04903444 0.070871584 0.030455217
0.028699169 0.040127814 0.054132942 0.03728207 0.043913055 0.027581602 0.041771147 0.033446666
0.05709312 0.057308305 0.04955238 0.026661895 0.046167348 0.053063307 0.06732957 0.046827346
0.009627798 -0.001540737 -0.00037218552 -0.000106979045 -1.9118386e-05 0.0038069356 -0.014880784 0.018700222
0.0014515249 -0.086165585 0.005248022 0.014889851 0.023731321 -0.013241932 0.006687661 -0.002975783
0.0041178153 -0.009088464 0.025001906 0.0077345474 0.011824706 -0.00461021 -0.009898749 -0.010154635

col_basis_1 f4 [50, 30]
00000000: f814 303d 8133 83b8 0044 593d 4e5b 923d
00000010: 89a0 4b3d 36f9 a2bd 6983 783d 17eb c7bd
00000020: c1e7 4e3d 0896 533d 1b25 aa3d 1d5d 573d
00000030: aa22 9a3d bbff 683d 1b4f 323d 76b8 3b3d
00000040: 3f97 a13d f61e 8c3c d779 8f3d bb0e 6d3d
00000050: 3e86 3f3d 8fbd 2a3d aadf 1cbd d533 22be
00000060: 7936 873d 657a 643c 7a95 8d3d 349f 91bc
00000070: 63fe d13c a56b a33d cc0f 973d 3257 eabc
00000080: a9c3 a03d ecc4 5d3d 6af4 5b3d edd8 963d
00000090: 147b d73c fb2b ef3b 3614 813d ad6c 193d
000000a0: 8bea 6d3d 120b 0c3d e53d 803d 10e0 373d
000000b0: 47d9 833d b955 8a3d ff79 853d 747e 7d3d
000000c0: c727 423d f97e 433d c485 693d a0ed 593d
000000d0: 6054 833c 4064 973e 3d15 363d 9342 bc3c
000000e0: a7ee febb 2de3 a8bd a44a ae3d 36c5 1a3c
000000f0: 6174 3a3d 616b e13c fc5c 213d 5e8a 193d
00000100: 7abe 353d 6a66 9b3c 0d7e 393d 3dce bcbb
00000110: 35c5 143d 7232 1d3d 9b7c 463d 0988 043d
00000120: f8c3 243d 5c49 433d 08b7 eb3c bcfc 023d
00000130: 30d2 bfbb 6f09 153d 0e28 1d3d 8d90 573d
00000140: 9ac1 533d 9d46 173d ae0f 2d3d 96ed 8b3d
00000150: b957 4a3d 9f6d 52bc e430 a2bc 6512 373d
00000160: b9e2 083d 0de6 3a3d 3296 923c dbd3 d83c
00000170: 7063 193d 4161 123d 7924 b33c 8942 a53c
00000180: 75cc 0a3d a88f e13b 0dc4 d33c afc0 5e3c
00000190: 7f8e 933c 9695 23bc 349b 023d 635f f03c
000001a0: 72c3 f4bb 9d50 dd3c 292d 68bc 7dd2 c83c
000001b0: 7918 273d b26a ed3c 74f9 f43c 7687 413d
000001c0: ed03 7c3c 1644 333e 292b 113d 3824 d73c
000001d0: 9db9 bd3b 4d90 823c e638 1b3d 36e9 083c
000001e0: efad e73c f1e6 d03c a309 9e3c e210 9e3c
000001f0: a074 d93c 47bc cb3c 04a8 d7bc 2733 963d
00000200: 9369 96bb 5a94 bf3c 186a 9e3c 7c98 f83c
00000210: 512e af3c ef77 d93c 0d51 363b 600e 1c3d
00000220: 0099 b93b 3559 29bc 4a5b 1b3d 6ccd ce3c
00000230: 79db 093c e529 57bb 6055 133d 8850 813c
00000240: b788 db3c 9961 053d 2533 7d3c 7081 0b3d
00000250: 9b4d 3e3b 79d3 053d 5fed 82bd dca3 413d
00000260: 9d3d 2a3d 909e 963c e8ab 3e3d 5096 0d3d
00000270: a204 6fbc 1c07 843b addc 2d3d e2ae 083d
00000280: 92b4 303d b809 77bc 7f9f 063d 8c2b f13c
00000290: fead 0a3d 1474 0b3d 7d4e 093d 66f8 113d
000002a0: b481 ea3c dbc6 f8ba 401d 8ebc 0c80 1e3d
000002b0: cff6 bf3c 7e05 5cbd 87c4 9c3d 2d01 033d
000002c0: 203c 7b3c 08bc e3bb 12c9 6fbc 6302 acbc
000002d0: 2a7c a43d 41fd 463d 462d 0d3c 7241 113d
000002e0: abb2 5c3d 0321 0f3d 3c05 353d 3e3f 353d
000002f0: 8af5 273d 8e71 753d d3f3 513d 1bb5 383d
00000300: 9480 183d d616 303d 385a e43c bcc9 053d
00000310: 84ec e03c 992a 323d 18e3 2d3d d176 1e3d
00000320: 574a 173d 013e 2e3d a06f 173d 90e2 21be
00000330: 2cc2 e639 d82c 253d d6d2 383d 677d 473d
00000340: 4b68 293d e64d 3a3d 9ba9 593d 336b 553c
00000350: f706 c03b 5dbe c93c 4a54 f93d 6561 13bb
00000360: a891 e8bc cfa3 40bc 9979 893c 274d b63c
00000370: 4183 233d 4b86 393c 9f72 fb3c 22e7 83bc
00000380: 8fe3 aaba 2665 ae3b 546c 10bd c5e1 c93c
00000390: b646 c7bb bea7 103d d88d 583c e3e2 ba3c
000003a0: 6c2c 9c3d da89 7fbd a05e a33c 2e52 503d
000003b0: 7c47 543d f313 92bd a129 bb3c 1f7f 6c3d
000003c0: eb0e 223e 649b 183e c47a ee3c 66f8 943d
000003d0: 8e71 aabb 8f00 92be 6b85 4f3d 1c35 c23a
000003e0: 34c3 ca3d 3ffd 54bc 33bb 3c3d d914 37bd
000003f0: b7d1 09bc e7d8 913d b797 91bd 1cd0 573d
0.042988747 -6.25616e-05 0.053043365 0.07146321 0.049713645 -0.079576895 0.060672197 -0.09761637
0.050513986 0.051656753 0.083078586 0.052579034 0.07526143 0.05688451 0.043532472 0.045830213
0.07890176 0.017104607 0.07005661 0.057875376 0.046758883 0.041684683 -0.03829924 -0.15840085
0.06602187 0.013945197 0.06913276 -0.01777611 0.025633996 0.07979516 0.0737606 -0.028606031
0.07849819 0.054142877 0.05369989 0.07365594 0.026303805 0.007298944 0.06302683 0.037457157
0.058085006 0.034190245 0.062618054 0.044891417 0.06437927 0.067546315 0.065174095 0.061888173
0.047401216 0.047728512 0.057012334 0.053205132 0.016031444 0.29568672 0.04445385 0.022980964
-0.0077799144 -0.08246455 0.0851033 0.009446433 0.045521144 0.027517023 0.039395317 0.037485473
0.044371106 0.018969733 0.045286227 -0.00576189 0.036320884 0.038378187 0.048458677 0.032356296
0.040225953 0.047677383 0.0287738 0.031979308 -0.0058539137 0.03638595 0.038368277 0.05262809
0.051698305 0.036932576 0.04225128 0.06832425 0.049400065 -0.0128435185 -0.019798703 0.044695277
0.033419345 0.04562955 0.017893884 0.026468208 0.037448347 0.03573728 0.021867977 0.020173328
0.03388639 0.0068835802 0.02585032 0.013595744 0.018012283 -0.009984395 0.031886294 0.029342359
-0.007469588 0.027015978 -0.014170923 0.024514431 0.040794823 0.02898154 0.029904105 0.047248326
0.015381795 0.17506441 0.03544155 0.026262388 0.005789949 0.015937949 0.03789606 0.008356383
0.02828118 0.025500746 0.019291705 0.01929516 0.026544869 0.024870051 -0.026325233 0.07333975
-0.004590222 0.02338617 0.019337699 0.030346148 0.02138439 0.026546447 0.0027819306 0.038099647
0.005663991 -0.01033621 0.037928857 0.025244437 0.008414143 -0.0032831368 0.03597009 0.01578547
0.02679859 0.03256378 0.015454088 0.034058988 0.0029037956 0.03267238 -0.06392931 0.04727541
0.041562665 0.018386155 0.04655066 0.034567177 -0.014588507 0.004029168 0.04244678 0.033369906
0.043140955 -0.015078001 0.03286695 0.02943971 0.033857338 0.034046248 0.033522118 0.03563728
0.0286263 -0.0018980162 -0.017347932 0.038696334 0.023433117 -0.053716175 0.07654672 0.031983543
0.015334159 -0.0069499053 -0.014635341 -0.020997232 0.08031495 0.048581365 0.008616751 0.035462804
0.05388133 0.03494359 0.044194445 0.044249766 0.04100565 0.059922747 0.05125792 0.04509459
0.037231997 0.042990528 0.02787505 0.032663092 0.02745653 0.043497656 0.0424529 0.03868753
0.03693613 0.0425396 0.03697169 -0.15809083 0.00044013688 0.04032597 0.045122944 0.048703577
0.041359227 0.045484446 0.053140264 0.013026047 0.0058602053 0.024626905 0.1217428 -0.0022488472
-0.028389767 -0.011757805 0.016781615 0.022253586 0.039920095 0.011323522 0.030694304 -0.016101424
-0.0013037788 0.0053221164 -0.03525956 0.024643788 -0.0060814274 0.03531622 0.013217412 0.022813266
0.0762566 -0.062387325 0.019942582 0.050859623 0.051825985 -0.07132711 0.022846999 0.05773842
0.15826003 0.14903027 0.029111274 0.07273941 -0.005201525 -0.2851605 0.050664347 0.0014816853
0.09900513 -0.012999832 0.046076965 -0.044697616 -0.008411816 0.07121449 -0.071090154 0.052688703

col_basis_2 f4 [50, 34]
00000000: 306b 9e3d 13c9 a23d 656a d13d c679 f83d
00000010: 8e01 1e3d dfc9 3a3d b4b5 263d fcef d23c
00000020: 4c7f 243e fc5f f23d 7ff5 433c 65bb 853d
00000030: 1795 babb 6f79 3c3d 95d7 3cbd f6e8 b2bc
00000040: 6950 173d ea2b fe3c 0c78 543d 5373 f9ba
00000050: ccd0 853d 1ea1 58be f33a 453d dd5d 8c3c
00000060: e131 af3d 08cf 00be 004a 8f3d 8374 9a3d
00000070: 336d d73c c15c c83c 49cc 333d e4f0 493d
00000080: 26b2 cf3c 1c6d 6cbd dfb5 9b3b 58db baba
00000090: 76c7 883d 2f0a 58bd 6ee3 5bbd 64fd 593b
000000a0: 8cb9 b43c 211b 0bbc 320f 793e e311 22bd
000000b0: 960f 52bc d23c 423c 8c9d 05bd 8d2a 01be
000000c0: e4c4 303d b42f bfbc 72e3 73ba c3d8 e03d
000000d0: 168c 0b3d 816b d53d f5e5 503c 8b20 313e
000000e0: fb98 903e b549 373d d9f2 bb3c 5122 9f3d
000000f0: f7d2 bebc 464f 133d 10bf 5f3d ccfc f23b
00000100: ca3e ec3b 2270 e13c 1134 263d a469 bd3c
00000110: ba72 6d3d 9351 843c 176f 843d 0dad 143b
00000120: db09 7d3c 1ce0 953c dc89 673c 680d a5bc
00000130: 3d1c 4e3e c037 d2bc 3127 ac3c aba0 cc3c
00000140: cc4e 58bd f5b3 a63d 4931 9f3d 5bda cfbc
00000150: 6beb d03c 82fe 2b3d f18e 2b3d 2dde a73c
00000160: 7b5c 84bd f50f bc3d fc51 b63d 6844 f83d
00000170: f5c3 13bd 050a a43c 6567 8e3d f254 7bbc
00000180: 5914 103d deb2 1d3d 99fb 6d3c 162c e23d
00000190: 3ea0 2e3d 8fc3 0ebd 4611 933d 504c df3c
000001a0: ec2e f43d a216 d83c 4115 833d 281e 383d
000001b0: 2816 ad3c 3a0e 61bc bd11 fcbd 7bcf c8bd
000001c0: 36df 41bd a13e a13c 2d8f 133d ac43 6a3d
000001d0: b7b2 cf3c 894b ac3b 4ffe 1f3d d4ea 053d
000001e0: 2792 0d3d 3a32 363c 8ba2 b03c d36e 963e
000001f0: 0fbf 16bc 4517 843d 7ad1 223d b9ed 973d
00000200: 806c 1d3d b6d2 74bb 320a 3e3c d0f0 543c
00000210: b990 a0ba 2abc 603d 75cb 233d 0bcf 2b3d
00000220: 8ab8 1cbd db3f 983c 0ec6 ca3d f690 083d
00000230: 8aa7 77bd f8d3 d13c f478 253d eee2 403d
00000240: f49d 223d c0a8 93bd 47ef 15bc 4ba8 ad3a
00000250: 6f4b 1f3d ff9d c5bc 8402 ac3d 5518 e7bd
00000260: a5d0 063c 313d a53d 9ff1 2c3d d20e c83d
00000270: 9c23 0e3d b754 c2bd 6b6f b53d c42c ef3d
00000280: 4a4c 403d 0e65 bc3d c279 623b 6874 b63b
00000290: 5eeb 4f3d da53 8a3d 7daa 113d 0b78 cb3d
000002a0: 4b69 86bb 19ff 4b3d 0e4d d0bd 5d9a 353d
000002b0: 8a44 9a3e a5da 513d 3b6d 6dbc 21f0 803e
000002c0: 79ab ac3d 2f7a 69be 3567 8c3d b3ef 72bd
000002d0: 7ec5 acbd 159f eebd a42b 9b3d 9c6f 63be
000002e0: af84 543e e40c 803e cf06 973d b008 8e3d
000002f0: 9872 d13d cb19 87be 707b ec3d 58f6 97bc
00000300: 1f52 d4bd 4b0e fdbd e403 dcbe 41e2 be3c
00000310: 28fb 9e3e 81f7 0ebe 5a52 393d 3a07 2c3d
00000320: 5ffd 1fbd bd2a d93d e7e3 973d 84f7 2b3e
00000330: 9a13 b33d 1335 8f3d 194d f3bd 6399 bf3b
00000340: d96d 3b3d 84d2 d53c 18e1 6f3c 7472 3abd
00000350: 0d15 bdbd fb2b d7bd 73f6 3bbf 6738 e23e
00000360: b421 303c bf1b aa3c 6334 babc 7660 7b3e
00000370: 5db0 883c d85b 573c 29d0 483d 0b1c 283d
00000380: f60b 99bd a1b7 223c 578f 8b3d 05e5 0c3e
00000390: bf43 26bb 8c04 533d ce14 773d a8e1 3e3e
000003a0: af1c 8b3d 2148 083d 21a6 a73c 8a6e 0b3e
000003b0: 44f2 2b3d 60df 37bd f337 6dbc 1b25 0d3d
000003c0: de81 ba3c 789c 9e3d 2d7b 0f3d 4eef 3c3d
000003d0: 3a01 9139 32d8 c13c 08f4 2ebe fd37 1c3e
000003e0: e997 b03d d0a8 b13d 8b43 443d 824d 9f3c
000003f0: 24fd 5c3d f71b ed3c 5de1 3e3d fbbf 07bc
0.07735288 0.07948508 0.10225371 0.121326014 0.0385757 0.045602676 0.04070063 0.0257492
0.16064185 0.11834714 0.011960386 0.06529883 -0.0056940424 0.046014246 -0.046104033 -0.0218396
0.03694192 0.0310268 0.051872298 -0.0019031562 0.065339655 -0.21155211 0.04815192 0.017134601
0.085544355 -0.12578976 0.06996536 0.07541754 0.026297187 0.024458291 0.043895993 0.049301997
0.025353502 -0.057721242 0.0047519053 -0.0014256043 0.06678669 -0.052744087 -0.05368369 0.0033262605
0.022061132 -0.008490355 0.24322203 -0.03956784 -0.012821099 0.011855321 -0.03262095 -0.12613888
0.04315652 -0.023338176 -0.00093036063 0.10978844 0.034069143 0.10420895 0.0127501385 0.1729757
0.28241715 0.044748027 0.022942947 0.07770217 -0.023293955 0.035964273 0.05462557 0.0074153896
0.0072096335 0.02751929 0.040577 0.023121662 0.05797074 0.016152179 0.06466501 0.0022686154
0.015444244 0.01829534 0.014131989 -0.020147994 0.2012796 -0.02566135 0.021014782 0.024978956
-0.05280952 0.08139793 0.07773072 -0.025372675 0.025502881 0.041990764 0.041884366 0.020491684
-0.06462952 0.09182731 0.08902356 0.121224225 -0.03607555 0.020024309 0.06953315 -0.015340077
0.035175655 0.03850066 0.014525318 0.11043565 0.042633288 -0.034854468 0.07181029 0.027258068
0.11923012 0.02637798 0.06400538 0.044950634 0.021128729 -0.013736302 -0.12308071 -0.09805199
-0.04733201 0.019683184 0.036025215 0.057193443 0.025353773 0.005258028 0.039060887 0.032694653
0.03456321 0.011120373 0.021561882 0.29381427 -0.009200825 0.06449751 0.039750554 0.07418389
0.03843355 -0.0037357039 0.01159911 0.012996867 -0.0012250162 0.054866947 0.039988954 0.0419455
-0.038261928 0.018585136 0.09901057 0.03334137 -0.060462512 0.02561377 0.040398553 0.047091417
0.039701417 -0.07209921 -0.009151286 0.0013249008 0.0388903 -0.02412319 0.08398917 -0.11283938
0.008228456 0.08068312 0.042222615 0.09768452 0.03470193 -0.09488814 0.08859142 0.1167846
0.046947755 0.09198962 0.0034557437 0.005568076 0.050761573 0.06754275 0.03556298 0.09935006
-0.0041019074 0.049803827 -0.10170947 0.044336665 0.30130416 0.051233906 -0.014491375 0.25183204
0.08431143 -0.22800516 0.06855623 -0.059310626 -0.08436106 -0.11651436 0.07576683 -0.22210544
0.2075374 0.25009835 0.073743455 0.06935251 0.10226935 -0.26386866 0.11546981 -0.018550083
-0.10367226 -0.12356242 -0.42971718 0.023301246 0.31050992 -0.13961603 0.045244552 0.04199908
-0.039059993 0.10603855 0.07416516 0.16793638 0.08743973 0.06992545 -0.118799396 0.0058471425
0.045759056 0.026101358 0.014641069 -0.045519307 -0.09232531 -0.105064355 -0.73422927 0.44183657
0.010750223 0.020765183 -0.022730058 0.24548516 0.016685659 0.013144456 0.049026642 0.04104237
-0.074729845 0.009931476 0.06814449 0.13759239 -0.002536997 0.051518008 0.060322575 0.18640769
0.0679258 0.033271912 0.020464959 0.13616386 0.04197909 -0.04489076 -0.014478671 0.034459215
0.022767004 0.07744688 0.03502958 0.046126656 0.0002765747 0.02366266 -0.17085278 0.15255733
0.086227246 0.086747766 0.047915976 0.019446138 0.05395235 0.028943999 0.046601642 -0.008285518

row_basis_0 f4 [29, 50]
00000000: e8c5 843d f05e 25bd 1073 733c 7b33 acbc
00000010: 6997 1e3d 8871 9b3d a07c 4b3d 32cf 6a3d
00000020: b46f 39bb 216c 21bd 6dad b039 dd3d bd3c
00000030: c15c 8a3d b932 1f3c 4e3d 263d 507a cf3d
00000040: c131 b13c a56b 253e c002 0f3d 9eb0 a7bc
00000050: 091d a43c 6e34 573d 1fc8 b23c 3494 0e3b
00000060: f080 46bc 4303 7d3d a350 dd3c fe10 a43c
00000070: ed6a 023d 90c8 473d db65 3e3c d240 4e3c
00000080: 0b30 1c3c 6bc2 1b3b 7056 113d 68ef 023d
00000090: 2f06 bb3c cc93 29bc f467 fc3c c250 03bd
000000a0: df19 1c3d 7f7c d03b 6ab0 d73c 5055 3ebd
000000b0: c456 873c b41b 363e 6e3b 323d 2351 503d
000000c0: 6c90 b73c ca47 dc3c ad98 013d 25b5 8abc
000000d0: 4df6 a23b 6565 6fbb bcea e63c 8998 f33c
000000e0: 47af 1c3d d467 553d 3541 763b 27b7 6d3b
000000f0: 0dc2 763c 19d5 c0bb bfc9 363b ea4a 843b
00000100: ce71 1c3d 9709 a33d bf6b 763d aeb6 013e
00000110: 43c9 6b3c 2807 653c fba2 de3c 741f f03c
00000120: 53e9 703c 74ce 89bc f530 563c 99d5 413d
00000130: 8cf8 d93c 5a7a 053c c678 b13c 177f e73c
00000140: 0cb4 f63c 1c6a 9f3b 80c2 a43a f9d5 5f3c
00000150: 4d01 cc3c c77e 95bc ac5e 2dbb b1bb d2ba
00000160: f385 4b3c 524e 1939 b42f b23c 674b 363c
00000170: 1e1d 433d 656c 933c d1e4 3f3b edb0 e03d
00000180: a285 b93c b4f3 173d 6dfd 563c 663a 25bc
00000190: 3af5 f13c 0517 64bb 248a 84bb 5787 103c
000001a0: 4148 463c 24ab bc3b 4a44 9d3c a041 323d
000001b0: 20be 74bc 4f5c f23b 504c de3b f25b 3bbc
000001c0: a254 893c 624e 65bc 23cb 893c f247 813d
000001d0: 1de4 753d c989 4a3d 4d32 25bc 56a8 ae3b
000001e0: 99a3 833c 6dcf 7e3c e024 773c 3f94 3f3c
000001f0: 7d5b 333b 9a16 fc3c 3c01 803c e7fa d83b
00000200: 21f4 233c b347 0c3d bbec 023c 5011 80bc
00000210: 4b38 debb 2b87 a73c a537 813c c55a 393c
00000220: 336b b23c 7a4b c63a 8c69 023a cdf0 d6bb
00000230: d258 b13c ab38 c63b 0bf5 283d 828a fe3b
00000240: a1b5 993c e08e 5f3d d3f9 883c e420 0f3c
00000250: 2015 033c 302c 023b 159b 0b3d c129 f83a
00000260: bc04 023b c6c5 bc3b 9a2d 8d3c cc67 c83c
00000270: 0e93 953c a301 f83c ad0f 513b c2e9 013c
00000280: f80b 48b9 2178 893b 0287 b23c 6027 3f3c
00000290: 9e5a 2f3c 08ea a13d 6095 f73c 8d95 a83d
000002a0: 2ae3 a33c 33de bebb 0cb2 f0bc eee9 a53c
000002b0: 3920 9a3c 9650 8bbb 10b6 453c d359 d33b
000002c0: 7eb8 873c 3abb 893c 6817 ee3b a88b 4ebc
000002d0: 1c25 47bc 43dd d8bb 928a d8bb da84 96bb
000002e0: 6322 2c3c f4c2 23bc 2866 77bc eb1e e53b
000002f0: a7df fcbc 90c5 223c 669c 4f3c 39f0 933c
00000300: 3b24 3b3d 95ef efbb a408 ac3c 5a5a 523d
00000310: 99e1 99bc ad1f bc3c 6bf5 f1bb e31d 6fbb
00000320: 8311 02bc 76f7 1dbc 24e6 35bd 15b3 333c
00000330: fa97 0cbe 8376 133f 014b a33d ddf9 82be
00000340: 3ead 593c 690f 963c d5e7 14bb 71df 7abb
00000350: 1c4a 06bf 1e2f a23c c5b5 db3a 7b75 663d
00000360: 6dd7 ac3e b535 b5bd 02ec 773c 75cf b43c
00000370: 2e5b c8bd 8cc2 a73d cfbc e4bb 9d4d 0fbd
00000380: 08fb 2a3c e133 053d 09bb 693c 0a62 7cbb
00000390: af79 083d 09c8 1b3e 4a20 4bbd e7c4 423c
000003a0: 51e5 603c 5e49 04bd 4600 df3b 7064 bbba
000003b0: def0 0d3d 8e24 9bbb 77c9 3e3c e4c5 28bc
000003c0: 5db9 883c f23f 1b3c b3d7 bb3d 5c83 10bb
000003d0: 2ca0 c93c 251b a63d b3fe 183d 98ad cfba
000003e0: a9b4 a43c 5871 373c 643e 2b3d d1da 033c
000003f0: 97dd a63c b6dc 183c 74a4 b63c 1524 82bc
0.0648306 -0.040373743 0.014858976 -0.021020642 0.038718615 0.07590014 0.0496794 0.057326503
-0.002829534 -0.03940976 0.00033698548 0.023100788 0.06755973 0.009716683 0.04058581 0.10130751
0.02163017 0.16154344 0.034914732 -0.02046996 0.020033376 0.052540235 0.02182394 0.0021755816
-0.012115702 0.06177069 0.02701599 0.020027634 0.031840254 0.048775256 0.011620964 0.012588697
0.009532939 0.0023767005 0.035482824 0.031966597 0.022830097 -0.010350179 0.030811287 -0.03205944
0.03811061 0.0063624973 0.026329238 -0.04646808 0.016520865 0.17784005 0.043513708 0.050858628
0.022407733 0.0268897 0.031639744 -0.01693208 0.004973209 -0.0036528942 0.028188102 0.02973582
0.038253095 0.05210097 0.0037575488 0.0036272497 0.015060914 -0.005884778 0.0027891246 0.0040372508
0.03819447 0.079608135 0.06016135 0.12667343 0.014391246 0.013978757 0.027177325 0.029311873
0.014704066 -0.016822077 0.013073196 0.047322843 0.026607774 0.008146847 0.021664035 0.028258843
0.03011515 0.004864944 0.0012570173 0.013661855 0.024902964 -0.018248929 -0.0026454134 -0.0016077665
0.012422073 0.00014620394 0.021751262 0.011126376 0.04763519 0.017996022 0.0029280672 0.10971246
0.022646729 0.037097648 0.013121945 -0.010084724 0.029535878 -0.003480376 -0.004044788 0.00882133
0.012102188 0.0057577062 0.019197602 0.043519616 -0.014937907 0.007396258 0.0067839995 -0.011435496
0.016763989 -0.013995739 0.016820496 0.063125506 0.060032 0.04944781 -0.010082793 0.005330126
0.01606922 0.015552384 0.015084475 0.0116930595 0.0027367764 0.030772496 0.015625589 0.0066217068
0.010006935 0.034248065 0.007991011 -0.015633255 -0.006781613 0.020450195 0.015773604 0.011313145
0.021779632 0.0015128695 0.0004974834 -0.0065594674 0.021648798 0.006049236 0.041249316 0.0077679763
0.018763365 0.054579616 0.016720688 0.008735869 0.008000642 0.0019862764 0.034083445 0.0018933342
0.0019839248 0.005760881 0.017233659 0.024463557 0.018258598 0.030274218 0.0031900213 0.007929267
-0.00019077945 0.0041952287 0.021792892 0.011667103 0.010702757 0.07905966 0.030222595 0.082316495
0.020005781 -0.005824828 -0.029381774 0.020253148 0.018814193 -0.00425155 0.012067333 0.006449917
0.016567465 0.01681291 0.007265974 -0.012606539 -0.012154844 -0.0066181733 -0.0066083157 -0.004593474
0.010506245 -0.009995211 -0.01510004 0.006992211 -0.030868364 0.009934798 0.012671566 0.018058883
0.04568885 -0.0073222616 0.021000214 0.051355697 -0.018784331 0.022964323 -0.0073839924 -0.003648632
-0.007938745 -0.009641519 -0.044408932 0.010967989 -0.1372985 0.5760271 0.0797329 -0.25581256
0.013285933 0.018317895 -0.002272119 -0.0038280154 -0.5245683 0.019797858 0.0016762546 0.05626438
0.33758107 -0.088481344 0.015131952 0.02207158 -0.09783016 0.08191404 -0.0069805156 -0.034986127
0.010435827 0.03252018 0.014265784 -0.0038510584 0.03331917 0.15213026 -0.04959134 0.0118877655
0.013726548 -0.03229653 0.0068054525 -0.00142969 0.034653537 -0.0047345823 0.011644713 -0.010301087
0.01668995 0.009475695 0.09172001 -0.0022050953 0.024612509 0.08110646 0.037352275 -0.0015844582
0.020105677 0.011196457 0.041807547 0.008047775 0.020369334 0.009329965 0.022295214 -0.015886346

row_basis_1 f4 [30, 50]
00000000: 8a2d 883c 5366 60be ae85 eebc 0803 713b
00000010: 5e2f 043d a60a 9a3d ba66 373c bef6 9fbc
00000020: 944e 0e3e 7c31 0ebf b9c8 af3c f960 803d
00000030: f7fb afbd f327 3a3e bd8e 81bd e6c5 6c3d
00000040: 3691 423d 0251 0b3d bca0 b83d bc4a f13d
00000050: 049f 853d ed28 18be 9ddb e53c 5a9c 55be
00000060: a4da 90bd 985f 94bc bbd4 bd3d 9287 b03d
00000070: d47c 69bc b8c6 8e3d 6aa7 bebd 4aa6 213e
00000080: d2fe 0c3d 46a9 3a3e 8510 883d a2da 8b3d
00000090: 39cd 513e 29b7 32bd a28c 8e3e 6d1a 393e
000000a0: 65f8 20bd bd57 043e bb97 e5bb d97b a9bd
000000b0: 83e1 1bbe 5aae 8f3d 10b2 1bbe 9c60 863c
000000c0: ee3a adbe 4a33 2abc 5a16 f7bd d5b8 98bd
000000d0: a3c5 9bbd 00b1 11bd bd22 653d 3adc 123e
000000e0: 5455 58bc 81e9 713e 1db3 9fbe 15d4 173d
000000f0: 995b 563e 4c00 84be 570a 753e 06c7 613d
00000100: 4941 773e 6e18 2fbd 7ba4 2e3b 910a 5c3e
00000110: a9d4 8fbe ff6b a73d 3198 bb3d 8a3f 9bbe
00000120: d223 ec3b 0cd7 973b 9564 f83b e56b 33be
00000130: 60fd 313e 5302 a73d c2a3 873d 490c 87be
00000140: 66b1 6b3c e39d ec3c 79e3 ed3c 3353 ab3c
00000150: cadc 0a3e f0e0 0a3e 6019 273d 26fa d43a
00000160: ecc9 8bbc 103c 9f3c bef3 82bb 73ac 1f3e
00000170: c15f fe3d 6d52 883d c3c3 2a3e a2f9 973d
00000180: 31bf 05be 5a0c 843d 9390 a43c 35f4 cdbd
00000190: 30d0 713d 1b6a 813d 3283 8b3d b697 f83c
000001a0: 3ffe 65bc f03d 51be 216a f6bc 78dc 903e
000001b0: 9971 873d 6aed fd3c f07d 883e bd1a 7e3d
000001c0: e95c ff3e 23c0 7e3d 5293 abbe 206f c03c
000001d0: 5aab 483d eaf5 23bc 4eb5 393e fbd8 ff3b
000001e0: cc7e 163d d2df 303e c382 433d f42e 863e
000001f0: 9f13 893d 2f3a ed3d 5ec2 2dbc 8e88 133c
00000200: fa2f f73b 58a0 a5bd d88b 6ebd de94 7e3c
00000210: 700f 2c3e 7e70 713b dac4 a1bc 8840 703e
00000220: 1ba2 e13a e6dd 59bd 7a04 a93d d9fd 1e3d
00000230: 7aa6 933d a41b 88bb aac5 97bd c20b 733d
00000240: c72f 3abd 29e6 e7bb 3b43 9cbe b2b6 39bc
00000250: f30e 983d b2da 563d ff17 24be af1a 453c
00000260: ceee b0bc 7aa6 32bd 5b08 453d 3354 383c
00000270: 78e5 023d 190a cc3e ddec babd 8e0f 163d
00000280: 2dab 7b3e cdae 053e e15e a3be d7ee bc3c
00000290: f728 bbbe 117c 653c 1e85 1dbb 8897 b13d
000002a0: 77c5 1cbe 810b 4f3d 9131 833d cbbd 683e
000002b0: f338 373d d3f8 3bbe 9e79 783d 8812 d33d
000002c0: e18e 9b3d 67a4 733c cc7a 033e 28b0 843e
000002d0: 5934 043c f970 ac3c e71b a73d 3490 af3c
000002e0: 2d8d d93c 3452 3ebe 306a a8bd c8cf 2c3d
000002f0: 70e7 bdbc 50cf 633d 175c cf3c f411 2f3d
00000300: 88b6 1d3e 94d9 eb3c 64f5 c03e 91f5 88bc
00000310: 94d9 253d 70be 88bc e930 8bbc 32dd 263d
00000320: 66ae 1f3d 430b 6e3d 0339 0d3d 0131 d43a
00000330: f262 1abc e943 83be 5df3 6cbc d842 3f3e
00000340: 8075 1e3e a42c eebc fc56 fc3d 0e68 1ebf
00000350: d9e1 0abe 79f6 7b3a 2ad3 403e 503e ec3c
00000360: b96e 593c e5ac 10bc 063e 3f3e dbf3 60bd
00000370: 338b 2bbd 1c54 793b 2968 c3bc 8381 e93d
00000380: b503 8cbe 82b4 203e ceb9 ccba 0db8 81bd
00000390: f874 bc3d d680 e73c 24f1 3ebc 430e 393d
000003a0: cca7 da3b 46af ec3c 7a84 613d 8010 263d
000003b0: 2d08 b23d 50f4 debd 4d3b b13d 76a4 193d
000003c0: 326a 28bd cf57 31be 316e 4b3d b24d bbbd
000003d0: a89e 063e 38b8 96bd b4b9 5c3e d69e 05bd
000003e0: 272a 73bc ce13 ad3d 4517 133d 2ca7 533d
000003f0: f6ba c03c 52ab 1a3d 7872 1a3d 6084 13be
0.016623277 -0.21914034 -0.029116478 0.0036775488 0.032271735 0.07521562 0.0111939255 -0.019526836
0.13897163 -0.5554426 0.021458017 0.06268496 -0.0859298 0.18179302 -0.06326053 0.05780592
0.047501765 0.034012802 0.09015033 0.117818326 0.065244704 -0.14859362 0.028058821 -0.20860425
-0.070729524 -0.018111989 0.09269091 0.08619608 -0.014250953 0.06971496 -0.093092754 0.1578609
0.034422703 0.18228635 0.06643776 0.0682881 0.20488442 -0.043631706 0.2784167 0.18076487
-0.039299387 0.12924094 -0.007006613 -0.08275575 -0.15222745 0.07015677 -0.15204644 0.016403489
-0.33834022 -0.010388205 -0.1206481 -0.07457129 -0.076060556 -0.03556919 0.055941332 0.14341822
-0.013203938 0.23624231 -0.3119134 0.03706749 0.20933379 -0.25781476 0.23929726 0.055121444
0.24145998 -0.042747907 0.002664833 0.21488406 -0.28091934 0.081748955 0.091598876 -0.30321914
0.0072064186 0.00463379 0.0075803497 -0.17521627 0.17381811 0.0815474 0.06623031 -0.2637656
0.014385557 0.02888388 0.029039131 0.020913696 0.13560787 0.1356237 0.040795684 0.0016248866
-0.017064057 0.01943782 -0.0039963415 0.15593128 0.12420607 0.066563465 0.1667624 0.074206606
-0.13061215 0.064476684 0.02008847 -0.100563444 0.059036434 0.06319066 0.06812133 0.030345779
-0.014037668 -0.20433784 -0.030079903 0.28293204 0.06613464 0.030996997 0.26658583 0.06203722
0.49875572 0.062194955 -0.33510834 0.023490489 0.04899154 -0.010007361 0.18135568 0.0078078485
0.036742017 0.1727288 0.047732126 0.26207697 0.066931956 0.11583363 -0.010605423 0.009004725
0.007543561 -0.08087224 -0.058238834 0.015538422 0.16802764 0.0036840732 -0.019747186 0.23462117
0.0017214449 -0.053190134 0.08252807 0.038816307 0.07209487 -0.0041536856 -0.07410748 0.059337385
-0.04545572 -0.007076998 -0.30520043 -0.011335062 0.07424726 0.052454658 -0.16024779 0.012030288
-0.021598246 -0.043615796 0.04810367 0.011250543 0.03195712 0.39851454 -0.09127209 0.036635928
0.24577017 0.13054962 -0.31908324 0.023063106 -0.3655469 0.0140066305 -0.0024035643 0.086714804
-0.15309702 0.05054808 0.064059384 0.2272865 0.044732045 -0.18356638 0.06066286 0.10306269
0.07595611 0.01487074 0.12839812 0.25915647 0.008069121 0.021049963 0.08159619 0.021431066
0.026556576 -0.18586046 -0.08223379 0.042190343 -0.023181647 0.05561763 0.025312467 0.04274173
0.15401661 0.028790273 0.37687218 -0.016718658 0.0404907 -0.01669237 -0.016991096 0.040738292
0.03898468 0.05811621 0.0344782 0.0016188921 -0.009423004 -0.2563775 -0.014462319 0.18677843
0.1547451 -0.02907402 0.123212785 -0.61877525 -0.13562717 0.00096116174 0.18830553 0.028838307
0.013271027 -0.008830284 0.18676004 -0.05492006 -0.041880798 0.0038044518 -0.023853378 0.114016555
-0.27346578 0.15693858 -0.0015619339 -0.06333933 0.092019975 0.028259676 -0.011654172 0.045179617
0.006672835 0.02889217 0.05505798 0.04054308 0.08692966 -0.10886443 0.08653889 0.037510358
-0.0411169 -0.17318653 0.049665634 -0.091456786 0.1314646 -0.07359356 0.21555215 -0.03262218
-0.014841593 0.08451043 0.035910863 0.0516731 0.02352665 0.03776104 0.037706822 -0.14405966

row_basis_2 f4 [34, 50]
00000000: 174f 62bd 072a 453e 4462 783d de29 b7be
00000010: c576 9d3e 3094 303e f294 a43d 03c0 243c
00000020: 099d 92bd cef9 913c 1ff3 0e3e 7215 1bbe
00000030: 7a8f 4e3d d6d3 023d b23f 1f3e 7c68 6b3e
00000040: ffe2 40be 3715 44bd abf7 053d 5931 c93c
00000050: 7ea4 a13d d128 45be f37e 873d 355c 183e
00000060: 6a6b 48bd 2874 103e 8742 d83d 4f1d c93c
00000070: 2f48 34be 0d08 47be 273f 97be 1e06 ec3d
00000080: b42f ad3d 2f8e a6bc f3bf 763e cc63 843b
00000090: 08ce 6d3e e77a 873d 9207 58bd dfd0 2abd
000000a0: 4dab 8ebe c64e 0a3c 7d72 473d 73b3 2e3e
000000b0: 107f 0f3d 8f5a 5abd 03ed 853d dfee b83c
000000c0: c7ec 4e3d ffdb b73d 20b1 dd3c 9877 333c
000000d0: 8924 1e3e bd88 a4bc 6f97 4d3c 0f32 4b3e
000000e0: f493 513d 7370 c3be df4f 23bd bb70 dfbd
000000f0: 6bd5 af3d b7ca eb3e c569 22bd eb5f 943d
00000100: 1c4e 993c 6f9e a73d d42c 7e3d 4214 523e
00000110: 7871 f6bd 0953 d33d c0bf 42be 9b95 863d
00000120: 19ae 44bd bfa1 c53d 49e3 8cbc 7008 2cbd
00000130: 4e5f 50be b78e 213d 05b6 c8bc 48de 2b3d
00000140: 054c 33bd 5083 0a3e 897b 2d3d f25c e63e
00000150: baf5 b3bd 82b0 413d 5abd 4b3d 404c 273d
00000160: 33dd 3a3c b7f1 5e3e 6783 0dbd f32b 1a3c
00000170: e998 853d 2871 5c3d 8419 adbd 981e 893d
00000180: 8733 73bb cf52 8a3d 116a 033e e5c4 533e
00000190: 27d3 38be 6d00 5c3e b8be 56be f591 b83d
000001a0: 8341 263e 35bf 2f3c d7a3 4dbd aadf c83d
000001b0: da87 e13c 5279 a93d 77ac 003e 29e7 c53d
000001c0: 43a2 1b3e a64b c53d fa99 3b3e b8f6 283d
000001d0: 39d9 1b3e 2a6a e93d 4569 b83d 86ee 2ebe
000001e0: 38b9 c43d 6651 a23e 0514 2e3e 8949 1d3e
000001f0: 4b48 ee3d 5f3d 373e 1249 c43c b7aa 433e
00000200: 036b 8c3d aa24 bfbd 4482 943d 32a1 0abe
00000210: 9519 983d 24f8 153e dfca ca3d adb7 ce3d
00000220: cbed 8abc 0df8 30bc b959 293e ea33 f6bb
00000230: 83c2 ad3d b9a8 ac3d 8145 c83d 0adc aabe
00000240: c9c3 b73e c905 843d bcad 44bd ce10 0cbe
00000250: b83c f43c 4ac5 d33d ec6b b5bd d952 be3d
00000260: e372 c93d 59e9 85bd 7b1a 603d 2b00 98bd
00000270: 72a5 cbbc 1a98 21bd f47c d6bd 5b8b 463e
00000280: dcb5 ebbe 1b9c 623e 1702 b33d b6bd f7bc
00000290: fc8d 963d 547b 54be 4440 20bd fe87 063e
000002a0: afdb 433e 5d85 8b3e f222 1d3e acd1 e1bd
000002b0: 7f9e 063e c928 813d cdcd e8b9 246e f6bc
000002c0: 121b acbe 48f3 053e 832b bbbd 7c23 75bc
000002d0: 2539 8d3c 2fb6 b13b c0c7 eabc d357 83be
000002e0: c7aa d2bd ba26 2e3e 01e8 a03d 77ae 52bb
000002f0: b0db 3abe 5136 4fbd e499 b1bd 6521 02be
00000300: 7724 3d3e 9d76 2cbe 2151 e13c a234 22be
00000310: 549e 04bd 97a7 d53c 0035 15bd 0635 663d
00000320: b301 543d 5b68 07bd 812d 3b3d d4d0 163e
00000330: 5e48 0abe 473f e53b b698 c03d 0d70 c93e
00000340: d587 cbbc fdfd 59bd e1df 8cbe 193b 8b3d
00000350: 7ab9 593b b20a 4ebe 5dd4 38bd 058e 023e
00000360: d023 ddbd 556a a3b9 d289 443e 1c1b f3be
00000370: c638 023e b326 353d 4d48 97bd 40b6 103e
00000380: 70a8 803c 2d9d d43b e137 51be d884 4cbd
00000390: e935 cd3d 41da fbbd efba 4fbe 9cd2 e03d
000003a0: 03a5 993d c84e 9c3e b167 7e3d cad4 803d
000003b0: 8869 2c3d 395e 4dbc 59db 82bd c699 753d
000003c0: daf6 1f3d 4248 63b9 ab04 0d3d b67e 803d
000003d0: 4b0c 00be d5ce 49be 9f6d 00bd e912 db3d
000003e0: 4c48 e73d 95ca 9fbd 1cd9 933d 052b 40be
000003f0: da29 4b3c 8431 fa3d 0eb3 b6be e54c 073f
-0.055251207 0.19254313 0.06064059 -0.3577413 0.30754676 0.17244029 0.080362216 0.010055545
-0.07158858 0.017819311 0.13959931 -0.151449 0.0504298 0.031940304 0.15551642 0.22989076
-0.18836592 -0.047871795 0.032706898 0.024559664 0.078927025 -0.19253851 0.066160105 0.14878924
-0.048930563 0.1410681 0.10559564 0.024550108 -0.17605661 -0.19436665 -0.2954037 0.11524604
0.08456364 -0.02033147 0.2409666 0.004040217 0.23223126 0.06615239 -0.052741595 -0.0417031
-0.27865067 0.008441633 0.04869317 0.17060642 0.035033286 -0.05330902 0.06539347 0.02257484
0.050518777 0.08977508 0.027061999 0.010953806 0.15443625 -0.020084733 0.012548312 0.19843315
0.05116649 -0.3817173 -0.039871093 -0.109101735 0.08585628 0.46053097 -0.03965165 0.072448574
0.018714003 0.08184516 0.06205447 0.2051554 -0.12033361 0.10318572 -0.1901846 0.06571504
-0.048017595 0.09649991 -0.017198222 -0.042000234 -0.20348856 0.039442744 -0.024500856 0.04196003
-0.04377367 0.13526654 0.04235414 0.44992787 -0.08787103 0.04728747 0.049741127 0.040844202
0.011405277 0.21771894 -0.034549143 0.009409892 0.06523306 0.05381885 -0.08452132 0.066952884
-0.003710957 0.06754076 0.1283343 0.20680578 -0.18049298 0.21484537 -0.20971191 0.09012214
0.16235928 0.01072674 -0.050205078 0.098082855 0.0275306 0.08275093 0.1256579 0.09663231
0.15198617 0.096335694 0.18320456 0.041250914 0.15219583 0.11397202 0.090044536 -0.17083177
0.0960564 0.31702727 0.16999824 0.15360083 0.116348825 0.17894505 0.023960624 0.19108091
0.06856348 -0.09333165 0.07251409 -0.13538054 0.074267544 0.1464544 0.09901976 0.10093627
-0.016959092 -0.010801327 0.16538133 -0.007513513 0.08484366 0.08430619 0.09778882 -0.33371
0.3589156 0.06446416 -0.04801725 -0.13678285 0.02981411 0.10340364 -0.08858475 0.09293146
0.09836366 -0.06538648 0.054712754 -0.07421907 -0.024859164 -0.039451696 -0.10473052 0.19389097
-0.46037185 0.22129862 0.08740633 -0.030241828 0.073513 -0.20750171 -0.03912379 0.13137814
0.19126771 0.27250186 0.15345362 -0.1102632 0.13146399 0.06306607 -0.00044403822 -0.030081816
-0.33614403 0.13081086 -0.091391586 -0.014962073 0.017239163 0.0054233293 -0.028659701 -0.25652942
-0.102864794 0.1700696 0.07856751 -0.0032147446 -0.18247867 -0.05058891 -0.086719304 -0.12708052
0.18470941 -0.16842122 0.027504506 -0.1584039 -0.032377556 0.02608089 -0.036427498 0.05620291
0.051759433 -0.033058506 0.045697693 0.14728099 -0.13504168 0.0069960686 0.09404127 0.393433
-0.024845043 -0.053220738 -0.27514556 0.06798381 0.0033222125 -0.20121267 -0.0451244 0.12749489
-0.10797846 -0.00031169006 0.191932 -0.4748162 0.1271697 0.04422636 -0.07386837 0.14132023
0.015705317 0.0064884634 -0.20431472 -0.049931377 0.10020048 -0.12297488 -0.20286153 0.109776706
0.075021766 0.30528855 0.062110607 0.06290586 0.04209283 -0.012534671 -0.063894935 0.059961103
0.039053775 -0.00021675325 0.03442828 0.06274168 -0.1250469 -0.19707806 -0.031354543 0.10696966
0.112930864 -0.07802311 0.07219145 -0.1876641 0.012400115 0.122164756 -0.35683483 0.52851707

alpha_0 f4 [29]
00000000: 15f6 f73f a6a1 1c40 8b02 fe3f b084 d63f
00000010: 7012 2e3d e7e8 fd3f ac1c 1a40 86d8 9d40
00000020: 386f 7340 5418 383f 7e55 c13f 0209 113c
00000030: 0b79 623e 254e 123f 03e0 6e3f d14d 023e
00000040: 5328 ff3f 49cb 563f 3745 6240 05bb fc3f
00000050: 7a41 1940 8d05 7140 f21b df3f 11c0 c43f
00000060: 7379 463f 23a9 213f ddd5 0c40 9310 0e3e
00000070: 2953 ed3f
1.9371973 2.4473662 1.9844526 1.6759243 0.042498052 1.9836701 2.408 4.932681
3.8036633 0.7191212 1.5104215 0.008852245 0.22116487 0.5715049 0.93310565 0.12724997
1.9934181 0.8390394 3.5354745 1.9744574 2.3946214 3.7659638 1.7430403 1.5371114
0.77529067 0.6314871 2.2005532 0.1387351 1.8541003

alpha_1 f4 [30]
00000000: 6c63 8840 84b7 d740 7486 d640 92a1 1041
00000010: e2ff d640 c613 9640 f596 a140 6ce7 9a3e
00000020: 5d66 0541 1fe0 d840 1cc2 0241 5529 c740
00000030: c8a9 3a41 7ee6 ea40 76cb c740 70cd 0541
00000040: 7167 9c40 d2d6 e840 e730 1d41 f12e 8c40
00000050: d11a d440 b3dd e640 f7e3 9940 5d3c 1d41
00000060: fd14 0440 54fa 0241 f3ee 8b40 a7b8 9240
00000070: 2605 bd40 6ddd aa40
4.2621365 6.741152 6.7039127 9.039446 6.7187357 4.6899137 5.0496774 0.30254686
8.337491 6.7773585 8.17239 6.2237954 11.6664505 7.3406363 6.2435865 8.362656
4.887627 7.276223 9.824439 4.38073 6.6282735 7.214563 4.8090777 9.827237
2.063781 8.186115 4.3729186 4.5850406 5.9068785 5.3395295

alpha_2 f4 [34]
00000000: 3ff8 ee40 45b2 0641 862d 3f41 f519 f340
00000010: 8fc0 f640 9377 0841 0e5b e740 2699 db3f
00000020: 9734 af40 61fc c940 bac3 7440 a4b9 4d40
00000030: fce6 e340 ad90 4741 4c83 ad40 f144 b040
00000040: 4401 a340 d6fc ee40 af4c 0e41 8b59 1941
00000050: 7f28 8f40 9e48 ef40 ec52 ac41 cdba d340
00000060: 03ca 2f40 25e6 d740 47ac b840 7ddc a140
00000070: 4d7a e240 0f4d a040 75d0 8140 edca f740
00000080: 3683 ba40 18c7 c540
7.4678035 8.418523 11.948614 7.5969186 7.7110057 8.529193 7.229865 1.7156112
5.4751697 6.312058 3.8244462 3.2144556 7.1219463 12.472821 5.4222775 5.5084157
5.0939045 7.468364 8.893722 9.584361 4.4736934 7.4776144 21.54049 6.616553
2.7467048 6.746844 5.77103 5.058165 7.0774293 5.0094066 4.0566964 7.743521
5.828517 6.1805534

start_layer.weight f4 [50, 2]
00000000: f9e7 94bc edd7 283f a28e 01bf 6a6e f0be
00000010: 5aaf 5dbe 4af5 f63d 0495 17bc ddbb 2b3f
00000020: a067 a5bd 096f f83d 156b 3ebe 2d43 4dbe
00000030: eb34 07bf 25ec e2be 8d0d 98be 3fe8 4bbd
00000040: 276d 953e bb96 c13e e5dc c7be b755 16be
00000050: dec6 653e 5b65 1d3f b5b5 1abe 6916 153f
00000060: 893d d0bd 6648 7d3c eee3 023f 954d 22bf
00000070: a373 c5be b0cc 71bd 2fd6 8dbe 5b6b 0e3f
00000080: 3812 00bf d3bf 97be 3a90 24bf 23b6 cfbe
00000090: 0947 cdbe bfe8 043f 58fd 903e ad72 a93e
000000a0: 8e1b c63c 89b3 d4be 7690 003d c085 75bf
000000b0: 8064 fcbe 5585 8abe 6e74 e23e 9b3f 8f3e
000000c0: 4ab1 88be 813c 1abe 585a fb3e 9e28 313f
000000d0: 5112 923e 7dc6 7bbb 585d f73e 61ad c1be
000000e0: d3a2 c83d 8626 3dbf ffdc b9be b459 d8be
000000f0: f983 a13e b597 703e dcbc c8be b3f5 763e
00000100: 85f7 a03e b3a8 a7bd 4c0a bd3c 7ba7 5d3e
00000110: 76ae b13e 5887 163f 8a27 09bf 00af f0be
00000120: 1ede 0e3e 3c8c 063f 7656 113f 706d fb3e
00000130: c7c3 b23d ed58 54bf 6a33 863d 905e 07bf
00000140: 52fb 1fbf 2649 ea3e bd65 ff3e 6362 2dbf
00000150: f751 033e 2d82 12be acb1 9bbd a6ae c7be
00000160: 3df8 5c3e c563 ebbe 91a6 a03d d14f 803e
00000170: 4ede cd3e 8e5e 2b3e f8ff 12bf 29fd 4abf
00000180: 564f ae3e 4bcf 943d 735e 3cbf 746c fcbe
-0.01817702 0.65954477 -0.50608265 -0.4695924 -0.21648923 0.12058504 -0.009251837 0.6708353
-0.080764055 0.12130553 -0.18595536 -0.20045157 -0.5281512 -0.4432079 -0.29697838 -0.049782034
0.2918484 0.3781031 -0.39035717 -0.14681135 0.22439143 0.6148278 -0.15108378 0.5823732
-0.10167987 0.015459156 0.51129043 -0.6339963 -0.38564786 -0.059033096 -0.27702472 0.5563256
-0.500278 -0.29638538 -0.6428257 -0.40568647 -0.40093258 0.5191764 0.28318286 0.33095303
0.024183061 -0.41543224 0.03138777 -0.9590721 -0.49295425 -0.2705485 0.44229454 0.27978215
-0.2669776 -0.15062143 0.49092364 0.692026 0.285296 -0.0038417869 0.48313403 -0.3782759
0.09796681 -0.7388691 -0.3630142 -0.42255938 0.31546 0.23495372 -0.39206588 0.24117164
0.31438842 -0.08186474 0.023076199 0.2164592 0.34703416 0.5880027 -0.53575957 -0.47008514
0.13951918 0.5255773 0.56772554 0.49106932 0.08728748 -0.8294819 0.06552775 -0.52878666
-0.6249286 0.45758933 0.49882308 -0.6772825 0.12824236 -0.1430747 -0.076022476 -0.39000434
0.2157907 -0.45974556 0.0784427 0.25060895 0.40208668 0.16735289 -0.5742183 -0.7929254
0.34044904 0.072661005 -0.7358162 -0.49301493

start_layer.bias f4 [50]
00000000: 7b2d 0e3f 165d d13e 3672 b4be 45bc 7cbe
00000010: dbbe 32bf e6d6 aabc d1cd 0dbf c343 13bf
00000020: ed6c 15bd ad18 da3d 6d1e a5be 7d35 f03e
00000030: 8062 e4be 6691 223f 5076 043f 3589 21bf
00000040: 1562 4cbe fb27 13bb 4a13 913d f0a0 1e3e
00000050: 3732 a13e 58da eebb 7081 bbbe 1c35 9f3e
00000060: a3fe 36bf da70 dbbe f88d 40be 4f4b b5be
00000070: eab2 96be 4863 21bf 55b3 17be 1a8e 083e
00000080: 1396 e7be 8fd7 f8bd 7497 063f fdf8 fabd
00000090: 4b9f c4bc ce4f 95bd 1484 413d c5ae f53e
000000a0: 6e86 793e 5524 dd3e 701c 333f 2f21 ce3c
000000b0: 27e0 47bf 3722 24bf c692 ff3e 3b09 8fbd
000000c0: 128a b4be 62d5 17bf
0.5553815 0.4089133 -0.35243386 -0.24681194 -0.6982247 -0.020854425 -0.55392176 -0.5752527
-0.036480833 0.10649238 -0.32249776 0.46915808 -0.446064 0.6350311 0.5174303 -0.63099986
-0.1995929 -0.002245425 0.07083757 0.1549108 0.31483623 -0.007289212 -0.3662219 0.31095207
-0.71482295 -0.42859536 -0.18804157 -0.35409018 -0.29433376 -0.63042116 -0.14814503 0.13335457
-0.45231685 -0.121504895 0.5257485 -0.12254522 -0.024001738 -0.07290612 0.0472451 0.479849
0.24367687 0.43191782 0.6996527 0.025162308 -0.78076404 -0.6411471 0.49916667 -0.069841824
-0.3526159 -0.5930997

end_layer.weight f4 [1, 50]
00000000: fb44 70bf c47f 323e f402 b2be 4203 093e
00000010: 0646 8dbd c2c7 413e 193a 753e a037 04be
00000020: cd52 60be 09d0 69bd b3e6 2bbd 9fde 04be
00000030: 0ba5 64be c511 06bf 2dc7 8dbe b97f ecbd
00000040: aeba 71bf 997b ad3d 905e 32be c95a 2dbe
00000050: ee8f 853e 2dbc 423e 16d2 6e3e 74f3 3b3e
00000060: 84da 0ebf 4288 9fbd abae 98bd abd8 67bf
00000070: d10e 903d 395b 22bf 14cf 5d3f e35b d9be
00000080: f460 6e3e e180 873c 9275 6a3d 08e7 423e
00000090: 25f3 31bf 6670 7fbf 9651 73bf 237d d63d
000000a0: 4353 1e3e e61d 6e3e 6aa4 84bf 0440 833f
000000b0: 093a 4b3e 8daf d33c 1a68 7fbf f775 6b3e
000000c0: a343 94bf 2bb6 3cbe
-0.93855256 0.17431551 -0.34767878 0.13380149 -0.068981215 0.18923858 0.23947944 -0.12911844
-0.21906586 -0.057083163 -0.04196806 -0.12975548 -0.22328584 -0.52370864 -0.27691022 -0.11547799
-0.94425476 0.0847084 -0.17418885 -0.16929163 0.26086372 0.19017096 0.23322329 0.18354589
-0.5580218 -0.07789661 -0.0745519 -0.90564984 0.07034076 -0.63420445 0.866441 -0.42452917
0.23279172 0.016540946 0.05724103 0.19033444 -0.69511634 -0.9978088 -0.95046365 0.10473087
0.1546145 0.23253593 -1.0362675 1.0253911 0.19846357 0.025840545 -0.9976822 0.22994219
-1.1583141 -0.18428867
