param/phase1/convection/sin_1/PINN_30_40.pt (torch, 119419 bytes, 21 tensors)

col_basis_0 f4 [50, 50]
0	0xbb72dcf8	-0.0037057977
1	0x3d9561e8	0.07294065
2	0xbe1db80c	-0.1540224
3	0xbda43726	-0.08018331
4	0xbd5eb104	-0.054368034
5	0xbd0ad4c9	-0.033894334
6	0x3d4ad8d7	0.0495232
7	0xbd8050b8	-0.06265396
8	0xbd1e7d7c	-0.03869389
9	0xbdb9d555	-0.09073893
10	0xbdb1d217	-0.086826496
11	0xbdaff90b	-0.08592423
12	0xbdb74d85	-0.089503326
13	0x3dd59aeb	0.10429939
14	0x3d91397f	0.07091045
15	0xbdc2e54c	-0.09516391
16	0x3d7accdb	0.06123052
17	0xbdb0496c	-0.08607754
18	0xbd1ecf20	-0.03877175
19	0x3d90d49b	0.07071801
20	0x3c23c1ab	0.0099949045
21	0x3c1a7293	0.009426731
22	0xbd9c3cf9	-0.07628817
23	0xbdb45113	-0.08804526
24	0xbd6a6da7	-0.05723348
25	0xbd0b85b1	-0.034063045
26	0xbdb2d4e4	-0.08732012
27	0xbd6b1248	-0.05739048
28	0xbd9d3079	-0.07675261
29	0xbc0b175e	-0.008489458
30	0x3d7b1132	0.061295696
31	0x3eb57147	0.35437986
32	0xbd6ed7e7	-0.05831137
33	0xbd680614	-0.05664642
34	0xbcc6ab28	-0.024251536
35	0xbe338523	-0.17531256
36	0xbce69ff0	-0.028152436
37	0xbdbe9bc9	-0.093070574
38	0x3d859f1d	0.06524489
39	0xbda5c366	-0.0809391
40	0x3dcd1831	0.1001438
41	0xbdb2a776	-0.08723347
42	0xbdb1ac2d	-0.08675418
43	0xbd4b686b	-0.049660128
44	0xbe0ee8e4	-0.13956028
45	0xbdd6ed3e	-0.10494469
46	0xbdbd9623	-0.09257152
47	0x3d823d5d	0.0635936
48	0xbe134ba1	-0.14384319
49	0xbdcfa829	-0.10139496
50	0xbe39a443	-0.18129067
51	0xbc3172df	-0.01083061
52	0x3c1a3605	0.009412293
53	0x3a787a73	0.00094786956
54	0xb9b24429	-0.0003400159
55	0xbe2e57cd	-0.17025681
56	0x3ea6d7e8	0.32586598
57	0x3b54aea0	0.0032452717
58	0xbb50a1b0	-0.0031834655
59	0x3cb06e67	0.021537019
60	0x3cd4d35f	0.025979696
61	0x3c924c5a	0.017858673
62	0x3ca41b81	0.020032646
63	0xbd0558dd	-0.03255545
64	0xbe278f9f	-0.16363381
65	0x3c8a0777	0.016849263
66	0x3e28bcf9	0.16478337
67	0x3ce132c4	0.027490027
68	0xbd62364d	-0.055227567
69	0x3db8a13f	0.0901513
70	0x3c2deb7c	0.010615226
71	0xbcb1010f	-0.02160695
72	0x3c464fd0	0.01210399
73	0x3b6161b6	0.0034390516
74	0xbc9242b8	-0.01785408
75	0xbe38d85b	-0.18051283
76	0x3c73a5b2	0.014871048
77	0x3b50a536	0.0031836755
78	0x3d5b1e58	0.053495735
79	0xbe1dbdc8	-0.15404427
80	0x3e8f69d1	0.2801042
81	0xbcc3357a	-0.02382921
82	0x3c81ec7e	0.015859839
83	0x3c366a48	0.011133738
84	0x3bd57c9b	0.0065150983
85	0x3bbd175b	0.0057706065
86	0x3cbd9436	0.023141962
87	0x3c6d68ae	0.01449029
88	0x3ea20e13	0.31651363
89	0x3d2d7471	0.042347375
90	0x3d044dfd	0.032300938
91	0x3c73ef04	0.014888529
92	0xbe6616a8	-0.2246958
93	0x3bbd817c	0.005783258
94	0xbd85e6a9	-0.065381356
95	0xbc50d6d9	-0.012746536
96	0x3b47422e	0.0030404436
97	0xbd800bb4	-0.06252232
98	0x3be2534d	0.006906903
99	0x3cad359e	0.02114373
100	0x3e85eddf	0.26158044
101	0xbbe33912	-0.0069342935
102	0x3d1aa15e	0.037751548
103	0x3cd07856	0.025448006
104	0x3c60153c	0.013676938
105	0x3e7091f0	0.2349317
106	0x3dbcba52	0.09215225
107	0x3cf24037	0.029571636
108	0x3cbb01f0	0.022828072
109	0x3ca823a4	0.020524807
110	0x3cd5ecf3	0.026113963
111	0x3cb2673e	0.021777745
112	0x3c899e27	0.016799046
113	0x3e47a3ba	0.1949605
114	0x3cb84665	0.022494504
115	0x3cc694c6	0.024240863
116	0x3e002abe	0.12516305
117	0x3d04111d	0.032242883
118	0xbe8e81c4	-0.27833378
119	0xbe91bbdc	-0.28463638
120	0x3e9f2934	0.31086123
121	0x3c1f8d99	0.009738349
122	0x3cad5432	0.021158312
123	0x3cfcf09a	0.030876447
124	0x3d11795f	0.03551614
125	0x3d137c60	0.036007285
126	0x3cfad239	0.03061782
127	0x3cd7944b	0.026315829
128	0xbcb3614d	-0.021896983
129	0xbd8b0849	-0.0678869
130	0xbe43579f	-0.19076394
131	0x3e9bbc7c	0.3041724
132	0x3ce77145	0.028252253
133	0x3c6687f1	0.014070497
134	0x3e81863f	0.25297734
135	0x3d21436a	0.03937093
136	0x3d99fed8	0.07519311
137	0x3d19ec9c	0.037579164
138	0x3e79b527	0.2438551
139	0x3ccb82ab	0.02484258
140	0xbd038451	-0.03210861
141	0x3d2564af	0.040379222
142	0xbcc4f24d	-0.02404132
143	0x3c8a378f	0.016872196
144	0xbd17c0a1	-0.03704894
145	0x3e44111e	0.19147155
146	0x3cf7a294	0.03022889
147	0x3a82ace1	0.0009969735
148	0x3d0618e6	0.03273859
149	0x3cd1c726	0.025607657
150	0x3b08d8aa	0.0020881095
151	0x3a01c5a4	0.000495041
152	0x3d7a7514	0.06114681
153	0xbd989b94	-0.07451549
154	0xbd1fdfb3	-0.039031696
155	0x3cacf402	0.021112446
156	0xbc8f80e7	-0.01751752
157	0xbce27f35	-0.027648548
158	0x3d02a102	0.03189183
159	0xbd3b00f0	-0.04565519
160	0xbdad1435	-0.0845112
161	0xbe88c0a6	-0.2670948
162	0xbe583167	-0.21112595
163	0x3e034b0a	0.12821594
164	0x3d05fd81	0.032712463
165	0x391ba02c	0.0001484162
166	0xbd63910c	-0.05555825
167	0x3e986ab0	0.29768896
168	0x3b4f0a7d	0.0031591945
169	0x3c2cfeab	0.010558764
170	0xbca9c55d	-0.020723993
171	0xbf0f4aaf	-0.55973333
172	0xbe5e926f	-0.21735547
173	0xbe537cde	-0.20653102
174	0xbd248db1	-0.04017419
175	0x3c927162	0.01787633
176	0x3acfd379	0.001585587
177	0xbdf0b034	-0.11752358
178	0xbea4f630	-0.32219076
179	0x3c253d0d	0.010085356
180	0x3c12444f	0.008927419
181	0x3da0e6af	0.078564994
182	0xbdaf4e81	-0.08559895
183	0xbe695ed4	-0.2279008
184	0x3c5d1224	0.013493095
185	0x3e557d5a	0.20848599
186	0x3c613bc0	0.013747156
187	0xbc6069a8	-0.013697065
188	0x3d17dcd5	0.037075836
189	0xbcdd0b6f	-0.026982991
190	0x3c975bf9	0.018476473
191	0xbceed14a	-0.029152531
192	0x3c48cec0	0.012256324
193	0xbe2e90db	-0.17047445
194	0x3bd29ed1	0.006427624
195	0x3cc225b0	0.023699611
196	0xbd8958a2	-0.067063585
197	0xbd1b8bd7	-0.03797516
198	0x3e7006fe	0.23440167
199	0x3cb7367e	0.022364851
200	0x3d89f381	0.06735898
201	0x3dbbb195	0.091647305
202	0x3df2894f	0.11842596
203	0x3d430f14	0.0476218
204	0x3d147544	0.036244646
205	0xbd6ddd81	-0.05807257
206	0xbd9b6b4b	-0.07588824
207	0x3d3d5844	0.046226755
208	0x3d8723f9	0.06598658
209	0x3d585015	0.052810747
210	0x3d3c6a52	0.045999832
211	0x3d032fd9	0.032028053
212	0x3ce3aa52	0.027791176
213	0xbdedd258	-0.116123855
214	0x3da4a529	0.08039314
215	0x3d51eddd	0.051252235
216	0x3c9187c6	0.017764937
217	0x3dcb7b97	0.09935682
218	0x3e212152	0.15735367
219	0xbdc0248a	-0.09381969
220	0x3e090621	0.13381244
221	0x3da37388	0.0798102
222	0x3d0f9a5d	0.03505932
223	0x3d33b99e	0.04387819
224	0x3c936584	0.017992742
225	0xbe1ac456	-0.15113959
226	0x3d493c02	0.049129494
227	0x3d2ddf31	0.04244918
228	0x3b68bc0d	0.0035512478
229	0xbcf0f23c	-0.029412381
230	0x3e311e5d	0.17296739
231	0x3e7dbc45	0.2477885
232	0x3d2d1048	0.042251855
233	0x3ca85e0e	0.020552661
234	0xbdb0b792	-0.08628763
235	0x3d9a6c18	0.075401485
236	0xbe0a61ca	-0.13513866
237	0x3d7ee169	0.062226687
238	0xbe54b284	-0.20771223
239	0x3d11099f	0.035409566
240	0x3db07be6	0.08617382
241	0x3d546f8e	0.0518642
242	0x3d08c40c	0.03339009
243	0x3c90ec96	0.017690938
244	0x3db2f4cb	0.08738097
245	0xbde1dc86	-0.1102839
246	0x3d49c1ec	0.049257204
247	0xbe171cb8	-0.14757049
248	0x3d6233ea	0.05522529
249	0x3d97f8e0	0.07420516
250	0x3e01bc74	0.12669545
251	0xbe2d7c5a	-0.16941968
252	0x3d0efbc6	0.03490808
253	0x3c862047	0.016372813
254	0x3ce7a9e2	0.028279249
255	0x3e257ab5	0.1616009

col_basis_1 f4 [50, 50]
0	0xb824033d	-3.9103663e-05
1	0x3d30fe41	0.043211225
2	0x3d2ca1d9	0.042146537
3	0x3ad80e63	0.001648378
4	0x3d596f51	0.053084675
5	0x3d470735	0.048590858
6	0x3d7dfc8e	0.062008433
7	0x3e307b76	0.17234597
8	0x3d91ebde	0.07125066
9	0x3d4aeaf9	0.049540494
10	0xbe1a0c9c	-0.15043873
11	0xbd9bc124	-0.07605198
12	0x3d76eee9	0.060286436
13	0xbe047318	-0.1293453
14	0xbdc17ed0	-0.09448016
15	0x3e362552	0.17787674
16	0xbe00dc10	-0.12583947
17	0x3d4b0f23	0.049574982
18	0x3d569051	0.052383725
19	0xbe2ec690	-0.17067933
20	0x3da7d158	0.08194226
21	0x3d55879f	0.05213129
22	0x3d98f6f8	0.074689806
23	0x3d68bbdc	0.05681978
24	0x3d3529f5	0.044229466
25	0x3d939c44	0.0720754
26	0x3d3af521	0.04564393
27	0xbdf5a54d	-0.11994419
28	0x3d9f9a6b	0.07793125
29	0xbd56839b	-0.052371603
30	0x3c94cd7d	0.01816439
31	0x3d8fdd3c	0.07024619
32	0x3d696e49	0.05698994
33	0x3d3e002e	0.04638689
34	0x3d2cad42	0.04215742
35	0xbd01c166	-0.03167858
36	0xbe22be42	-0.1589289
37	0x3cd2b793	0.0257223
38	0x3d81bb62	0.063345686
39	0x3d8a8c70	0.067650676
40	0x3c74fa25	0.014952217
41	0x3d8e0c31	0.06935919
42	0xbc898907	-0.016788973
43	0x3e639be4	0.22227436
44	0x3cd1521c	0.025551848
45	0x3bc64295	0.0060504177
46	0x3db0872b	0.08619531
47	0x3e05157d	0.12996478
48	0x3da50942	0.080584064
49	0x3d53460d	0.051580478
50	0xbda18128	-0.07885963
51	0xbd36a40b	-0.044590037
52	0x3d92ec1c	0.071739405
53	0xbccd62a1	-0.025071444
54	0x3d9fc7e3	0.07801797
55	0x3daa3238	0.0831036
56	0x3e4eebd0	0.20207143
57	0x3d1dac9c	0.03849469
58	0x3d5db762	0.054129966
59	0x3d572d29	0.052533302
60	0xbe40201e	-0.18762252
61	0x3d96925e	0.07352136
62	0x3cdfed28	0.027334765
63	0x3d9d5482	0.07682134
64	0x3ba6a75d	0.005085869
65	0x3d8d24d7	0.06891792
66	0xbe741ed2	-0.23839882
67	0x3d8215b2	0.06351794
68	0x3d1a0c25	0.03760924
69	0xbc61a123	-0.013771328
70	0x3d710b14	0.058848456
71	0x3d0fe814	0.035133436
72	0x3d800096	0.06250112
73	0x3d3b5b57	0.045741405
74	0x3d83058e	0.06397544
75	0x3db9ae60	0.090664625
76	0x3d8ad408	0.06778723
77	0xbe1344ea	-0.14381757
78	0x3d85826f	0.06519019
79	0xbe096a03	-0.13419347
80	0x3d7d15da	0.061788417
81	0x3d41a270	0.047274053
82	0x3d4e70af	0.050400432
83	0x3d656590	0.05600506
84	0x3d59a2d8	0.053133816
85	0x3c949df1	0.018141719
86	0x3e973531	0.2953277
87	0xbdab6c21	-0.08370233
88	0xbcf470ec	-0.029839002
89	0x3d3199dd	0.043359626
90	0x3cc8a2a1	0.02449161
91	0xbc13f299	-0.009030008
92	0xbd9d3467	-0.076760106
93	0xbd2017f0	-0.03908533
94	0x3da88d95	0.0823013
95	0x3d6f1801	0.0583725
96	0x3e52bae0	0.205791
97	0xbddfff6d	-0.109373905
98	0x3c2c8818	0.010530494
99	0xbe572166	-0.21008834
100	0xbe8063ae	-0.2507605
101	0x3ddd5478	0.10807127
102	0x3d35b30e	0.044360213
103	0x3ce436e1	0.0278582
104	0x3d22cfb2	0.039748855
105	0x3e47e8f5	0.1952246
106	0xbe0976ca	-0.1342422
107	0x3e02707b	0.1273822
108	0x3d1accf4	0.037793115
109	0x3d2e5bf9	0.04256818
110	0xbc91f1c9	-0.017815487
111	0x3c9f84c7	0.019472493
112	0x3d3834fe	0.044972412
113	0xbe0d715f	-0.13812779
114	0xbad25447	-0.0016046845
115	0xbe4c8517	-0.19972645
116	0xbd940328	-0.072271645
117	0x3d14ded6	0.036345325
118	0x3d1ec4bc	0.03876184
119	0xbe057834	-0.13034135
120	0x3d47304b	0.04863004
121	0x3d0589aa	0.03260199
122	0x3d2511db	0.04030023
123	0x3d43edcb	0.0478342
124	0x3cef0fdf	0.029182373
125	0x3e115736	0.14193425
126	0x3d04dc87	0.032436874
127	0x3d70e469	0.05881158
128	0xbb9f7d04	-0.004867198
129	0xbc8f3f40	-0.017486215
130	0x3d15933b	0.036517363
131	0x3d1d7cd9	0.038449142
132	0x3d5aadf2	0.053388543
133	0x3d5092bf	0.050921198
134	0x3d1a21f6	0.037630044
135	0x3d2ccef1	0.042189542
136	0x3d8bf1a7	0.06833201
137	0xbd0d9fbb	-0.03457616
138	0x3ecbbd51	0.39792874
139	0x3d519038	0.05116293
140	0xbc46321b	-0.012096907
141	0xbc924f66	-0.017860126
142	0x3d2e98be	0.042626135
143	0x3d35f51e	0.044423215
144	0x3d07b7be	0.033134215
145	0x3db7b278	0.08969587
146	0x3cf54b8a	0.029943246
147	0xbeaeebad	-0.3416418
148	0x3d3b3bbe	0.04571127
149	0xbe070c85	-0.1318837
150	0x3cc4cbd5	0.024022976
151	0xbe4af40d	-0.1981966
152	0x3c9f958f	0.019480495
153	0x3cd5e155	0.026108423
154	0x3d1776b5	0.036978442
155	0x3bbd9fcd	0.005786872
156	0xbd73586c	-0.059410498
157	0x3ebefd9a	0.37302858
158	0x3d126e3a	0.03574965
159	0x3cb826f0	0.022479504
160	0x3dbdb537	0.092630796
161	0x3ca7df66	0.020492267
162	0x3d0b4a7f	0.034006592
163	0x3e517d2b	0.20457904
164	0x3bd44781	0.0064782505
165	0x3e0a20bf	0.13489054
166	0xbe6a983e	-0.22909638
167	0x3cd5b753	0.026088392
168	0x3c60c6f3	0.013719308
169	0xbdf810d6	-0.12112586
170	0x3c93e180	0.018051863
171	0xbc23f011	-0.010005967
172	0x3d028674	0.031866506
173	0x3cef05cf	0.029177574
174	0xbbefa17a	-0.0073129507
175	0xbe6250d6	-0.22101149
176	0x3cdf0d94	0.027228154
177	0x3e1f2f45	0.15545376
178	0xbc6b5b6e	-0.01436506
179	0xbdb3c7be	-0.08778332
180	0x3cc938e4	0.02456326
181	0x3d24e1bd	0.040254343
182	0x3ce5ef3c	0.028068177
183	0x3cf9cdef	0.030493705
184	0x3d3f9d9c	0.046781167
185	0x3c7dd305	0.0154922055
186	0x3e32f3c2	0.17475799
187	0xbd9a14db	-0.07523509
188	0xbe0b1e28	-0.13585722
189	0x3d0a1522	0.03371156
190	0x3cd88885	0.026432285
191	0x3bcd8bac	0.0062727537
192	0x3c8382eb	0.016053637
193	0xbd0e8f34	-0.034804538
194	0x3d19c7bd	0.037544
195	0x3dfedcbc	0.124444455
196	0xbec10e53	-0.3770624
197	0xbb6dfaa7	-0.003631273
198	0x3c177cd7	0.009246073
199	0x3e74f01a	0.23919716
200	0xbd330626	-0.043707035
201	0x3df11c3d	0.11772964
202	0x3cf64062	0.030059997
203	0x3cc93027	0.024559094
204	0x3c992bb0	0.01869759
205	0x3ddefcd3	0.10888066
206	0xbd427946	-0.047478937
207	0x3d05e262	0.0326866
208	0x3c99eed6	0.018790644
209	0x3cc65e55	0.024214903
210	0x3df54274	0.119755656
211	0x3cc96954	0.024586357
212	0xbcca434c	-0.024690293
213	0x3e7f230b	0.24915712
214	0x3da1630b	0.07880219
215	0x3e00a038	0.12561119
216	0xbe1c7b98	-0.15281522
217	0xbba63d6d	-0.0050732405
218	0x3cbe5541	0.023234012
219	0x3e5d1394	0.215895
220	0x3c9a096d	0.018803323
221	0x3cf939e8	0.03042312
222	0x3cad191e	0.02113014
223	0x3cd12b9c	0.02553349
224	0x3b52909e	0.0032129656
225	0xbd857c2b	-0.06517824
226	0x3d1c514b	0.038163465
227	0x3da226d6	0.079175636
228	0x3ba097fd	0.004900931
229	0xbe8af574	-0.2714039
230	0xbc224622	-0.009904416
231	0x3d178d35	0.0369999
232	0x3cc2ae23	0.023764675
233	0x3c154721	0.009111197
234	0xbb59bc79	-0.003322391
235	0x3d123617	0.035696115
236	0x3c800dab	0.015631517
237	0xbe020bf6	-0.12699875
238	0xbd82082f	-0.06349217
239	0x3cc817ee	0.024425473
240	0x3cfd9751	0.030955942
241	0x3c86bdb2	0.016447876
242	0x3d0ad186	0.033891223
243	0xbd88679a	-0.066603854
244	0x3b785c02	0.0037896638
245	0x3e1a9c17	0.15098606
246	0x3e5e5f3d	0.21716018
247	0x3e392343	0.18079858
248	0x3cfd3912	0.030911002
249	0xbdebe2f8	-0.115179
250	0xbe07669a	-0.13222733
251	0x3e33d55b	0.17561857
252	0xbd82cc82	-0.06386663
253	0x3d3f4606	0.04669764
254	0x3d288741	0.041144613
255	0x3e039b35	0.12852176

col_basis_2 f4 [50, 50]
0	0x3d9ba9e5	0.07600764
1	0x3d965578	0.073405206
2	0x3dd157f1	0.102218516
3	0x3e1db936	0.15402684
4	0x3c548584	0.012971286
5	0x3def5cbc	0.116876096
6	0x3d1ce105	0.038300533
7	0xbe66c23d	-0.22535034
8	0x3d3c0200	0.045900345
9	0x3d251ed6	0.04031261
10	0x3cd5e862	0.026111785
11	0x3d8e88ab	0.06959661
12	0x3e2402bf	0.16016673
13	0x3e347c8b	0.17625634
14	0xbdab580c	-0.08366403
15	0x3b421621	0.002961524
16	0x3df36fd4	0.11886564
17	0x3c55d7b9	0.013051921
18	0x3d884282	0.0665331
19	0xbbc1ffe4	-0.005920397
20	0x3d4661c2	0.048433073
21	0xbdcad673	-0.09904184
22	0xbd32158b	-0.043477576
23	0xbc9ae126	-0.018906187
24	0x3d199216	0.037492834
25	0x3cfdc08a	0.030975599
26	0x3c9a2dd3	0.018820679
27	0x3d55b3ab	0.052173298
28	0x3b126c0a	0.0022342228
29	0x3d860d04	0.06545451
30	0xbe58215c	-0.21106476
31	0xbe412178	-0.18860424
32	0x3d392c05	0.045207996
33	0x3c8f9549	0.01752724
34	0x3dadef37	0.08492892
35	0xbdf7eebc	-0.12106082
36	0x3d8f1c3b	0.069878064
37	0x3d94aa49	0.07259042
38	0xbdeb5882	-0.11491491
39	0x3e879d5f	0.26487252
40	0x3cd60002	0.02612305
41	0x3cd6d7f6	0.026226025
42	0x3d3192c3	0.043352854
43	0x3d4a2fa1	0.04936183
44	0x3cd4074c	0.025882386
45	0xbe4e23c7	-0.20130835
46	0xbe2909bf	-0.16507624
47	0xbd60d669	-0.054891977
48	0xbe44a4b8	-0.1920346
49	0xbc35bbd5	-0.011092146
50	0x3be432a2	0.0069640437
51	0xba80ca32	-0.0009825884
52	0x3d88974a	0.06669481
53	0x3e063787	0.1310712
54	0xbd0b5d3a	-0.034024455
55	0xbd5937c9	-0.053031716
56	0xbd576217	-0.05258378
57	0xbdcee8b8	-0.10102981
58	0x3b892bb6	0.004186119
59	0x3cbb0c72	0.022833083
60	0xbc222d7b	-0.009898539
61	0x3c92abc3	0.017904168
62	0x3e7ac4bf	0.24489115
63	0xbe2cc6d5	-0.16872723
64	0xbe120970	-0.14261413
65	0x3cd38319	0.025819348
66	0xbd25d938	-0.04049036
67	0xbc5d9956	-0.013525328
68	0x3c4ffb52	0.012694197
69	0xbd09fc03	-0.033687603
70	0xbde92231	-0.113834746
71	0x3d0aac43	0.033855688
72	0x3d280af1	0.04102606
73	0xbcd0d421	-0.025491776
74	0xba079ed5	-0.0005173509
75	0x3dde4e3a	0.10854764
76	0x3eaa2e76	0.33238572
77	0x3d103e29	0.03521553
78	0x3dce6a33	0.1007885
79	0x3c552df8	0.013011448
80	0x3e3338e6	0.17502174
81	0xbe0ec01e	-0.13940474
82	0x3e8e4531	0.27787164
83	0x3d47ea18	0.048807234
84	0x3cbf830e	0.023377921
85	0x3da09d91	0.078425534
86	0xbc9c984b	-0.019115588
87	0x3d00bdbb	0.03143094
88	0xbe45aaf2	-0.19303492
89	0x3e50f3e3	0.20405535
90	0x3d615929	0.05501667
91	0x3c385a3b	0.011251981
92	0x3c0b6c60	0.008509725
93	0x3d03ce99	0.03217945
94	0x3d2e2296	0.042513452
95	0x3c0e6cc7	0.008692927
96	0xbe817142	-0.2528172
97	0x3cd77716	0.026301902
98	0xbe6b0dd9	-0.22954501
99	0x3ea08090	0.31348085
100	0x3d6bbd37	0.057553496
101	0x3c878462	0.016542617
102	0x3d844fc8	0.064605296
103	0xbc37b0c9	-0.011211582
104	0x3e1bdaa1	0.15220119
105	0x3c23a919	0.0099890465
106	0x3c7e3460	0.015515417
107	0x3de8d7d6	0.113692924
108	0x3ca0385e	0.019558128
109	0x3c7b3acd	0.015333843
110	0xbc8b4856	-0.017002266
111	0xbd0460b5	-0.03231879
112	0x3e4e5276	0.20148644
113	0xbbda966a	-0.006670763
114	0x3e17b896	0.14816508
115	0x3d3f99d7	0.046777572
116	0xbccfce00	-0.025366783
117	0x3ca0a2f3	0.01960895
118	0x3cb855e0	0.022501886
119	0xbd4607b3	-0.048347186
120	0x3d9d6350	0.07684958
121	0x3e9513b9	0.2911661
122	0x3d995b5e	0.0748813
123	0xbcb3074e	-0.02185407
124	0x3cd73281	0.0262692
125	0x3d262047	0.040558126
126	0xbe2c9097	-0.16852032
127	0x3d2c6627	0.042089608
128	0x3ca1794e	0.019711163
129	0xbd7d9ed1	-0.061919037
130	0x3dbc73a7	0.092017464
131	0xbe742482	-0.23842052
132	0x3db690fa	0.08914371
133	0x3dfab6fc	0.12241933
134	0xbd100a73	-0.035166215
135	0x3ca05d80	0.019575834
136	0x3d8b3359	0.06796903
137	0xbc803e50	-0.015654713
138	0x3c68fdb7	0.014220647
139	0xbd5ea853	-0.054359745
140	0x3d1449dd	0.036203254
141	0x3d1b180c	0.03786473
142	0x3c864aac	0.016393028
143	0x3dd1c678	0.10242933
144	0x3d313950	0.043267548
145	0xbd3852da	-0.04500089
146	0x3db4343b	0.08799025
147	0xbd083a9b	-0.033259016
148	0xbd0cca0b	-0.03437237
149	0xbd1139af	-0.035455402
150	0x3d943803	0.07237246
151	0x3cdab80f	0.026699094
152	0x3df301c6	0.11865573
153	0xbe212cd8	-0.15739763
154	0xbc244839	-0.010026985
155	0x3cd6df88	0.026229635
156	0x3d8134e8	0.06308919
157	0x3dbfab4b	0.093588434
158	0x3d390ee5	0.04518022
159	0x3cb61aec	0.022229634
160	0xbc33765c	-0.010953512
161	0xbe4e6b2c	-0.2015807
162	0xbdfbc24a	-0.12292917
163	0xbcda7d1e	-0.026670989
164	0x3de48e41	0.11159945
165	0x3e56e8dc	0.20987266
166	0xbdc685d2	-0.09693493
167	0xbd3f2f7d	-0.046676148
168	0x3ca21ad1	0.019788178
169	0x3d1605c4	0.036626592
170	0x3d67ab7f	0.056560036
171	0xbdfe3f5b	-0.12414428
172	0x3cd587cc	0.02606573
173	0x3c0ffed7	0.008788786
174	0x3d1e77d8	0.03868851
175	0x3d05e88b	0.032692473
176	0x3c1f2e6c	0.009715658
177	0x3d0f4a3b	0.0349829
178	0x3c19c668	0.009385683
179	0x3cb64101	0.022247793
180	0x3e96cbec	0.29452455
181	0xbe798697	-0.24367748
182	0xbc23a577	-0.00998818
183	0x3d8662ed	0.06561837
184	0x3d201e86	0.03909161
185	0x3d9badbb	0.07601496
186	0x3d1f9770	0.03896278
187	0xbadfc6d1	-0.0017072802
188	0x3e21a146	0.15784177
189	0xbe0c2cdd	-0.13688989
190	0x3c3e69be	0.011621891
191	0x3c635c8c	0.013877045
192	0xb9cbd581	-0.0003887825
193	0x3d615f7d	0.055022705
194	0x3d23a012	0.039947577
195	0x3e87bb83	0.26510248
196	0xbe7171e6	-0.23578605
197	0x3d2bdc7b	0.041958313
198	0xbedc877e	-0.43072122
199	0xbd913489	-0.070900984
200	0xbd126724	-0.035742894
201	0x3c801208	0.015633598
202	0x3dc91486	0.09818368
203	0x3c2cbf08	0.010543592
204	0x3e98b1e3	0.29823217
205	0x3cf54abe	0.029942866
206	0xbd6cf6d5	-0.057852585
207	0xbdbe8923	-0.093035005
208	0x3cd2a377	0.025712712
209	0x3d262b83	0.04056884
210	0x3d31e33e	0.043429606
211	0x3e941250	0.2892022
212	0x3d26bb68	0.04070607
213	0x3e17c515	0.14821275
214	0x3d902e91	0.07040132
215	0xbe43e15c	-0.19128937
216	0xbd931fb4	-0.07183781
217	0xbc150c36	-0.00909715
218	0x3ab0ef77	0.00134991
219	0x3d19ce37	0.037550177
220	0xbc97af25	-0.018516133
221	0x3e10bdb0	0.1413486
222	0x3da695a1	0.08134008
223	0xbde11c4c	-0.10991725
224	0x3c0e95c3	0.008702698
225	0x3da52c7d	0.08065126
226	0x3e6f9854	0.23397952
227	0x3d2dcd7a	0.042432286
228	0x3dbfc53e	0.09363793
229	0x3d0c69de	0.03428065
230	0xbdbe8df2	-0.09304418
231	0x3e0cb7e1	0.13742019
232	0x3db6d119	0.08926601
233	0x3df23350	0.11826193
234	0x3d372b16	0.044718824
235	0x3dbbaf3e	0.09164284
236	0x3bac50de	0.0052586636
237	0x3b86586c	0.004099896
238	0x3d652c95	0.05595072
239	0xbeaa8034	-0.33300936
240	0x3d4ef435	0.050525863
241	0x3d8993a3	0.067176126
242	0x3d122e8c	0.03568892
243	0x3dcac08e	0.09900008
244	0xba1f955c	-0.0006087625
245	0x3c8f0960	0.017460525
246	0x3e6e7efb	0.23290627
247	0x3d51c4f8	0.051213235
248	0xbe07d802	-0.13265994
249	0x3da01a5e	0.07817529
250	0xbdce2f62	-0.10067631
251	0x3d397bbf	0.04528403
252	0x3e99b5ed	0.3002161
253	0x3cb136c7	0.021632565
254	0xbc091c79	-0.008368605
255	0x3d643c91	0.055721823

row_basis_0 f4 [50, 50]
0	0x3c89ac61	0.01680583
1	0xbdca61af	-0.09881913
2	0x3d43ead0	0.047831357
3	0x3e2fc0e7	0.1716343
4	0x3ccd6150	0.025070816
5	0xbddcddfd	-0.107845284
6	0x3e0602db	0.13087027
7	0xbdffa6bf	-0.12482976
8	0x3e303332	0.1720703
9	0x3dbc3c39	0.09191174
10	0x3c59e078	0.013298146
11	0xbea86f57	-0.32897446
12	0x3cc7cadb	0.024388721
13	0xbdf0a231	-0.117496856
14	0x3e655a2e	0.22397682
15	0xbd2442fe	-0.04010295
16	0xbd836e35	-0.06417505
17	0xbd76bfd0	-0.06024152
18	0x3de2a280	0.11066151
19	0xbe0e8a4f	-0.13919948
20	0xbeca071a	-0.39458543
21	0x3d434c1a	0.047679998
22	0xbd85a8f9	-0.065263696
23	0x3db79f7c	0.08965966
24	0x3e90dc1e	0.28292936
25	0x3dc5d1a5	0.09659127
26	0xbe03b2d0	-0.1286118
27	0xbe3474cf	-0.17622684
28	0x3d759713	0.05995853
29	0x3b876bc3	0.0041327192
30	0xbe1eb6a6	-0.15499362
31	0xbdc4264d	-0.09577618
32	0xbc86a56a	-0.016436297
33	0x3dd958b3	0.10612621
34	0x3e71961b	0.23592417
35	0x3d3c84a6	0.04602494
36	0x3ca49c2b	0.020093998
37	0xbe7bd6b2	-0.24593619
38	0x3c60e757	0.013727031
39	0xbe2a63cb	-0.1663963
40	0xbd2b803c	-0.04187034
41	0x3e552a46	0.20816907
42	0xbe25fb73	-0.16209202
43	0x3e63eb40	0.2225771
44	0xbda41c25	-0.08013181
45	0x3da21e80	0.07915974
46	0x3d87e2ce	0.066350564
47	0x3dda7d04	0.10668376
48	0x3cf903b4	0.030397274
49	0x3dc03af9	0.09386248
50	0x3d58dad1	0.052943055
51	0x3e054106	0.13013086
52	0xbdf5025d	-0.119633414
53	0xbd239c11	-0.03994376
54	0x3d0b84cb	0.034062188
55	0x3cd7100c	0.026252769
56	0xbcd39d74	-0.025831915
57	0xbdc0da47	-0.09416633
58	0x3e837123	0.25672254
59	0x3db9666c	0.090527385
60	0x3cbb6ede	0.022880014
61	0x3d5ca2e9	0.0538663
62	0x3cd50d4a	0.026007313
63	0xbece47cf	-0.4028916
64	0xbe2048fe	-0.15652844
65	0xbd3524bc	-0.044224486
66	0x3d14cf5e	0.036330573
67	0xbc7438eb	-0.014906148
68	0xbd426e64	-0.047468558
69	0x3d318245	0.043337125
70	0xbdc2d3bf	-0.095130436
71	0xbc0a153e	-0.008427916
72	0x3d728589	0.05920938
73	0xbdb9eb1c	-0.09078047
74	0xbe08c9b7	-0.13358198
75	0x3dc89b7a	0.0979528
76	0x3e2a3630	0.16622233
77	0x3d11f411	0.03563315
78	0x3e04e227	0.12976895
79	0xbe41d5fe	-0.18929288
80	0x3e5bff9c	0.21484226
81	0xbdb98894	-0.09059253
82	0xbe0ce110	-0.1375773
83	0xbd54a8b5	-0.051918704
84	0xbdae8229	-0.0852092
85	0x3eb11dac	0.3459295
86	0xbdcd5acd	-0.100270845
87	0x3e9e23d8	0.30886722
88	0x3e120632	0.14260176
89	0xbe2fe53f	-0.17177294
90	0xbe8bea07	-0.27326986
91	0x3d586e63	0.052839648
92	0xbdb5f592	-0.088847294
93	0x3e3d3a67	0.1847931
94	0x3d21cdbc	0.039502844
95	0x3e3ebaf6	0.18626007
96	0xbdf4f04f	-0.11959898
97	0x3d66833e	0.056277506
98	0xbe0cb15c	-0.13739532
99	0x3c3024cc	0.010750961
100	0x3d84152f	0.06449353
101	0xbd25a972	-0.0404448
102	0x3c6e920e	0.014561189
103	0xbcac38de	-0.02102321
104	0x3d1a3957	0.03765234
105	0x3d9b648a	0.07587536
106	0x3d4ab4c1	0.049488787
107	0x3d684205	0.056703586
108	0xbb2c9e54	-0.0026339488
109	0xbd20de4c	-0.0392745
110	0x3a29015e	0.0006447042
111	0x3cbe3cbd	0.023222322
112	0x3d8add30	0.067804694
113	0x3c1b5362	0.009480329
114	0x3d25975d	0.040427554
115	0x3dcde12b	0.10052713
116	0x3cb046c7	0.021518124
117	0x3e24801b	0.16064493
118	0x3d0c004e	0.034179978
119	0xbca7a460	-0.020464122
120	0x3c9d6451	0.019212874
121	0x3d5576d5	0.05211528
122	0x3caeb5b6	0.02132688
123	0x3b21fdc6	0.002471791
124	0xbc48148e	-0.012211932
125	0x3d7bf288	0.061510593
126	0x3cda5629	0.026652412
127	0x3c9fb20b	0.019494077
128	0x3cfffde2	0.03124899
129	0x3d48eac8	0.04905203
130	0x3c3aa56e	0.011391981
131	0x3c4e20b8	0.012581043
132	0x3c1adc04	0.00945187
133	0x3b02ab2a	0.0019938448
134	0x3d105984	0.03524162
135	0x3d03072f	0.031989273
136	0x3cb4a354	0.022050537
137	0xbc289032	-0.010288285
138	0x3cff6616	0.031176608
139	0xbd02f0e7	-0.031968024
140	0x3d239433	0.039936256
141	0x3bd72550	0.0065657273
142	0x3cd9373e	0.0265156
143	0xbd3c8949	-0.046029363
144	0x3c80d8b8	0.01572834
145	0x3e352237	0.17688833
146	0x3d2e178d	0.04250293
147	0x3d4e369c	0.05034505
148	0x3cb52e2c	0.022116743
149	0x3cd49f9c	0.025955014
150	0x3d012121	0.031525735
151	0xbc8ef54c	-0.017450951
152	0x3baf5d92	0.0053517306
153	0xbb8d18a6	-0.004305917
154	0x3ced40fc	0.028961651
155	0x3cfe0126	0.031006407
156	0x3d1e49c1	0.038644556
157	0x3d535d4e	0.051602654
158	0x3b72381f	0.003695972
159	0x3b2de1a9	0.002653221
160	0x3c7a329e	0.015270857
161	0xbba55558	-0.005045574
162	0x3b7041af	0.0036660244
163	0x3b8420bf	0.004032224
164	0x3d1d71d5	0.038438637
165	0x3da17c5a	0.07885046
166	0x3d74b9ca	0.059747495
167	0x3e0109a9	0.12601341
168	0x3c785672	0.015157329
169	0x3c636665	0.013879393
170	0x3ce62222	0.028092448
171	0x3cf74e5b	0.03018873
172	0x3c6d487b	0.014482613
173	0xbc8a30f9	-0.016869055
174	0x3c4cef60	0.012508243
175	0x3d431e66	0.047636412
176	0x3cd25407	0.025674833
177	0x3c113414	0.008862514
178	0x3caf8fa7	0.021430803
179	0x3cf3b967	0.029751493
180	0x3cfa0094	0.030517854
181	0x3b93cccb	0.004510497
182	0x3a74d1a1	0.00093390985
183	0x3c5e86bb	0.013581927
184	0x3cd44497	0.025911612
185	0xbc8095e0	-0.015696466
186	0xbace0a33	-0.0015719592
187	0xbb323c63	-0.0027196638
188	0x3c446db3	0.011989045
189	0xba93a296	-0.0011263664
190	0x3cb0789f	0.021541892
191	0x3c2d24ec	0.010567885
192	0x3d418602	0.04724694
193	0x3c901995	0.017590323
194	0x3b52623b	0.0032102007
195	0x3ddf87dd	0.10914586
196	0x3cbe5bfa	0.023237217
197	0x3d18eab1	0.037333194
198	0x3c4d84d4	0.012543876
199	0xbc27029c	-0.010193493
200	0x3cf0721e	0.02935129
201	0xbb772deb	-0.0037716578
202	0xbb7958fe	-0.0038047428
203	0x3bfb14c6	0.0076623885
204	0x3c4cade4	0.012492631
205	0x3be43b10	0.0069650486
206	0x3c9e7202	0.019341473
207	0x3d30a970	0.04313034
208	0xbc794b75	-0.015215744
209	0x3bbadf15	0.005702863
210	0x3bde8ed6	0.0067919297
211	0xbc3e6b56	-0.011622271
212	0x3c8d8309	0.017274396
213	0xbc6536e1	-0.013990135
214	0x3c8a9ffa	0.016921986
215	0x3d7ebb9c	0.062190637
216	0x3d72b599	0.059255216
217	0x3d48a445	0.048984785
218	0xbc15a950	-0.0091346055
219	0x3ba99086	0.0051746992
220	0x3c86d0f5	0.01645706
221	0x3c81f520	0.015863955
222	0x3c6df6fa	0.014524216
223	0x3c3082ec	0.010773402
224	0x3b33fd05	0.0027464044
225	0x3cf8db73	0.030378079
226	0x3c7c1cec	0.015387755
227	0x3bde5590	0.006785102
228	0x3c25978c	0.010106932
229	0x3d0c118a	0.034196414
230	0x3c0c1c0d	0.00855161
231	0xbc7e35d2	-0.015515761
232	0xbbd74bec	-0.00657033
233	0x3ca45fb8	0.020065174
234	0x3c857d3e	0.016295072
235	0x3c34cfd0	0.0110358745
236	0x3cb1c86a	0.02170201
237	0x39a9490a	0.0003228861
238	0x3abf52f9	0.0014596871
239	0xbbdd3be5	-0.0067515248
240	0x3cacca31	0.021092506
241	0x3bbdfe4e	0.0057981377
242	0x3d24f51b	0.040272813
243	0x3bf30a41	0.007416994
244	0x3c9131ec	0.017724
245	0x3d5da570	0.05411285
246	0x3c8a7248	0.016900197
247	0x3c12ac95	0.00895228
248	0x3bedcb58	0.0072569065
249	0x3b067275	0.0020515
250	0xbd566555	-0.05234273
251	0x3e5f00d5	0.21777661
252	0x3ddb125b	0.106968604
253	0xbd5350f7	-0.051590886
254	0xbd02beea	-0.03192035
255	0x3d459dbc	0.04824613

row_basis_1 f4 [50, 50]
0	0xbcafcd5e	-0.021460231
1	0x3e919860	0.28436565
2	0x3e95ad3d	0.29233733
3	0x3cd0f833	0.025508976
4	0x3dedbe6c	0.11608586
5	0x3e2717ab	0.16317622
6	0x3dff1922	0.124559656
7	0xbc88c0de	-0.016693529
8	0xbe46ec95	-0.19426186
9	0x3e2362fa	0.15955725
10	0x3e501b7e	0.20322987
11	0x3d15bec5	0.036558885
12	0xbba10a7c	-0.00491458
13	0xbe4619af	-0.19345735
14	0x3d2c1079	0.042007897
15	0xbd2912a5	-0.041277546
16	0xbeba158f	-0.36344573
17	0xbe369898	-0.17831647
18	0x3d2a3ff3	0.041564893
19	0xbdeb5379	-0.114905305
20	0xbd85a657	-0.065258674
21	0xbd07d65a	-0.033163406
22	0x3dadab04	0.08479884
23	0xbe034adc	-0.12821525
24	0xbceb7b1e	-0.02874523
25	0xbe1e550b	-0.15462129
26	0x3ca117d8	0.01966469
27	0xbd9a8ece	-0.07546769
28	0xbd002d86	-0.031293415
29	0x3b9549cc	0.0045559164
30	0xbca52664	-0.020159908
31	0x3df01fe1	0.117248304
32	0x3e155a09	0.14585127
33	0x3d4beab2	0.04978437
34	0x3df87119	0.12130947
35	0xbdf64784	-0.12025359
36	0x3e0dd96c	0.13852471
37	0xbd015c35	-0.031582076
38	0x3e7d6185	0.24744232
39	0x3e0ae6ce	0.13564608
40	0xbea4a8ab	-0.32159933
41	0xbd8e5143	-0.06949093
42	0xbe2ac1d1	-0.16675498
43	0xbd1245b9	-0.035711024
44	0xbd9663fd	-0.0734329
45	0xbdcf6bc6	-0.10127978
46	0xbde12127	-0.109926514
47	0x3d0399f1	0.03212923
48	0xbd700df6	-0.058607064
49	0x3e6da3e2	0.23207048
50	0x3cf53286	0.029931318
51	0x3e1c1ceb	0.15245406
52	0xbe2d62eb	-0.16932265
53	0xbd7aac59	-0.06119952
54	0x3d6a01fb	0.057130795
55	0xbe313b56	-0.17307791
56	0x3db0015d	0.0859401
57	0x3cba82c8	0.02276744
58	0x3c22b45b	0.009930695
59	0x3da02550	0.07819617
60	0xbe938ca3	-0.28818235
61	0xbd5fdb3b	-0.054652434
62	0xbcafd0b8	-0.02146183
63	0x3dec4b3b	0.115377866
64	0x3d029269	0.03187791
65	0x3d902419	0.07038135
66	0xbe90b746	-0.28264827
67	0x3e835950	0.25654078
68	0xbc2985bc	-0.010346826
69	0xbd7d1ebb	-0.061796885
70	0x3dce2c30	0.10067022
71	0x3d0dae72	0.034590192
72	0x3d56bdba	0.05242703
73	0xbd1b663c	-0.037939295
74	0x3cb30bfa	0.021856297
75	0x3e349983	0.17636685
76	0x3e4f9c27	0.20274411
77	0xbc8d505c	-0.017250232
78	0xbec45d88	-0.3835261
79	0xbd2c47d1	-0.042060677
80	0x3de8041e	0.1132891
81	0xbe62895b	-0.2212271
82	0x3d83d7a5	0.06437615
83	0x3e11000a	0.14160171
84	0xbdb985ca	-0.09058721
85	0x3d120b71	0.035655443
86	0xbe83c21f	-0.2573404
87	0xbb32fecd	-0.0027312518
88	0x3e4cfc23	0.20018058
89	0x3cd974c9	0.026544945
90	0xbe08cf04	-0.1336022
91	0x3c34d9a7	0.0110382205
92	0x3d882ec0	0.06649542
93	0xbd2cb601	-0.04216576
94	0x3d5818c4	0.052757993
95	0x3eaf4fb7	0.34240505
96	0xbdf9f893	-0.12205615
97	0xbdaeecde	-0.085412726
98	0xbd9d3b8a	-0.07677372
99	0x3e2d2669	0.16909184
100	0x3c7da665	0.015481566
101	0xbe5f0afa	-0.21781531
102	0xbce25a06	-0.027630817
103	0x3c12dcaf	0.008963748
104	0x3d0e5f10	0.034758627
105	0x3d9d8c46	0.07692771
106	0x3c4fd7e0	0.012685746
107	0xbc7541db	-0.014969314
108	0x3e0e76c8	0.13912499
109	0xbf0ab0eb	-0.54176205
110	0x3ca0ed08	0.019644275
111	0x3d82efdf	0.06393408
112	0xbdaa16e7	-0.083051495
113	0x3e366871	0.17813279
114	0xbd7efe41	-0.062254194
115	0x3d750765	0.059821505
116	0x3d4307f5	0.04761501
117	0x3d0485e6	0.032354258
118	0x3db87efe	0.09008597
119	0x3dec9c3d	0.115532376
120	0x3d8b4349	0.06799943
121	0xbe1bcbbf	-0.15214442
122	0x3ce5b29e	0.028039273
123	0xbe55aaad	-0.20865889
124	0xbd992e62	-0.0747955
125	0xbc8f106b	-0.017463883
126	0x3db3a9fe	0.08772658
127	0x3dc34cce	0.09536134
128	0xbc5f4a2d	-0.013628525
129	0x3d8e452a	0.06946786
130	0xbdcfacaf	-0.10140359
131	0x3e226817	0.1586002
132	0x3d0b99e2	0.0340823
133	0x3e3b5190	0.18292832
134	0x3d878d20	0.06618714
135	0x3d885cb1	0.066583045
136	0x3e4d7b66	0.20066604
137	0xbd0af448	-0.03392437
138	0x3e8c1b3e	0.27364534
139	0x3e374b79	0.17899884
140	0xbd1d1941	-0.038354162
141	0x3e0b754a	0.13618961
142	0xbbcf0e8b	-0.0063188723
143	0xbdae1ee0	-0.08501983
144	0xbe1b4d0d	-0.15166111
145	0x3d92436e	0.071417674
146	0xbe1ae7ea	-0.1512753
147	0x3c8e9d33	0.017408943
148	0xbeb09ad3	-0.34493122
149	0xbc5de9b1	-0.013544486
150	0xbdf907ed	-0.12159715
151	0xbd9650e5	-0.07339648
152	0xbd9a5c47	-0.07537132
153	0xbcdd6848	-0.027027264
154	0x3d66a4a8	0.056309372
155	0x3e04bfb1	0.1296375
156	0xbc643cd1	-0.013930515
157	0x3e740508	0.23830044
158	0xbe9bf690	-0.3046155
159	0x3d09ebd1	0.033672158
160	0x3e577c8c	0.21043605
161	0xbe846984	-0.25861752
162	0x3e73ef0d	0.2382166
163	0x3d62f97b	0.055413704
164	0x3e82b3d5	0.25527826
165	0xbd29ad68	-0.04142514
166	0x3b4ab1c3	0.0030928708
167	0x3e56aff7	0.20965563
168	0xbe8aa122	-0.2707606
169	0x3da85644	0.08219579
170	0x3dcd0666	0.10010986
171	0xbe9a1852	-0.3009668
172	0x3bf99b3a	0.0076173814
173	0x3a2b3273	0.000653065
174	0x3c2c7318	0.010525487
175	0xbe300a0e	-0.17191336
176	0x3e2cf0e1	0.16888763
177	0x3d9e27a3	0.07722404
178	0x3d853ca5	0.06505708
179	0xbe85ed15	-0.26157442
180	0x3c89eac1	0.016835572
181	0x3cedef9c	0.029044919
182	0x3d2e6966	0.042580985
183	0x3cb86648	0.022509709
184	0x3e02d81c	0.12777752
185	0x3e09110c	0.13385409
186	0x3d1bdef0	0.038054407
187	0xbb76950b	-0.0037625458
188	0xbc28658f	-0.01027812
189	0x3ca924f4	0.020647503
190	0xbb1ceeff	-0.0023946164
191	0x3e29c6cb	0.1657974
192	0x3de99b45	0.114065684
193	0x3d883a15	0.06651703
194	0x3e29148b	0.16511743
195	0x3d9ab0ff	0.075532906
196	0xbe04e4c0	-0.12977886
197	0x3d892537	0.06696551
198	0x3ca79018	0.020454451
199	0xbdcf47cd	-0.10121117
200	0x3d6fac5d	0.058513988
201	0x3d802ea3	0.06258895
202	0x3d89d692	0.06730379
203	0x3cdf3ac4	0.027249701
204	0xbc57ea95	-0.013178487
205	0xbe46c8b1	-0.19412495
206	0xbceb70d2	-0.02874032
207	0x3e9287d0	0.28619242
208	0x3d83fb6e	0.06444441
209	0x3d0e1077	0.03468367
210	0x3e84cf21	0.25939277
211	0x3d88d7de	0.066817984
212	0x3eff6369	0.4988053
213	0x3d7d4d6d	0.061841417
214	0xbeb1827c	-0.34669864
215	0x3cd469f0	0.025929421
216	0x3d40c99b	0.047067266
217	0xbbe379cd	-0.00694201
218	0x3e320834	0.17385942
219	0x3bdd9cf8	0.006763097
220	0x3d16ab78	0.03678462
221	0x3e314fdc	0.1731562
222	0x3d420da4	0.04737629
223	0x3e873729	0.2640927
224	0x3d7ca12c	0.061677143
225	0x3decfd2e	0.11571728
226	0xbb7d904f	-0.003869075
227	0x3c18f074	0.009334672
228	0x3c2b0aa2	0.010439547
229	0xbda1534d	-0.078772165
230	0xbd653d1a	-0.055966474
231	0x3c8201f1	0.015870066
232	0x3e25dcb2	0.1619747
233	0x3b3b1e0d	0.0028551847
234	0xbc5ec6b1	-0.013597176
235	0x3e6fb7a2	0.23409894
236	0x3af34289	0.0018559258
237	0xbd4aed54	-0.04954274
238	0x3da5e4a1	0.08100248
239	0x3d1d90ad	0.03846805
240	0x3d910fec	0.07083115
241	0xbad36b61	-0.0016130024
242	0xbd776f66	-0.060408972
243	0x3d7477c4	0.05968453
244	0xbd370c59	-0.04468951
245	0xbc18cbd8	-0.009325944
246	0xbe9beb00	-0.30452728
247	0xbc4905ad	-0.01226942
248	0x3d96aed1	0.07357562
249	0x3d611b5b	0.05495773
250	0x3ae68b48	0.0017589116
251	0x3df3cb77	0.11904042
252	0x3d25b0a1	0.04045165
253	0x3e215861	0.1575637
254	0xbe7432ec	-0.2384755
255	0xbd49eb0e	-0.04929643

row_basis_2 f4 [50, 50]
0	0xbd5ba5e2	-0.053624995
1	0x3e4548e4	0.19266087
2	0x3d75685e	0.059913985
3	0xbeb5f1f8	-0.3553617
4	0x3e9e2d65	0.30894008
5	0x3e32a930	0.17447352
6	0x3da4b5e9	0.08042509
7	0x3c2b4d35	0.010455419
8	0xbd955b5d	-0.07292817
9	0x3c877094	0.016533174
10	0x3e0e4602	0.13893893
11	0xbe1b09bc	-0.15140432
12	0x3d4f0dc1	0.050550226
13	0x3d0367cd	0.032081414
14	0x3e1f8e9a	0.15581742
15	0x3e6b5ba1	0.22984172
16	0xbe421aba	-0.18955508
17	0xbd4b0e18	-0.049573988
18	0x3d0984a0	0.033573747
19	0x3ccc37f9	0.024929034
20	0x3da5d85b	0.08097907
21	0xbe475c6b	-0.19468848
22	0x3d86600c	0.06561288
23	0x3e198082	0.14990428
24	0xbd454cdd	-0.048169006
25	0x3e11c816	0.14236483
26	0x3dd6b649	0.10483987
27	0x3cba9fae	0.02278122
28	0xbe34ed48	-0.1766864
29	0xbe448bae	-0.19193909
30	0xbe9749fe	-0.2954864
31	0x3dedf04f	0.11618101
32	0x3dad563d	0.08463714
33	0xbc99ded0	-0.018783003
34	0x3e758ef2	0.2398031
35	0x3b8e10ad	0.004335484
36	0x3e6de7bd	0.23232932
37	0x3d8c23a6	0.06842737
38	0xbd68bf7e	-0.056823246
39	0xbd22e983	-0.039773475
40	0xbe8e947e	-0.27847666
41	0x3c0b64f0	0.008507952
42	0x3d41a45c	0.047275886
43	0x3e2d37f6	0.16915879
44	0x3d094d2f	0.033520874
45	0xbd5200d8	-0.051270336
46	0x3d85b8c9	0.065293856
47	0x3cbfc58f	0.023409633
48	0x3d4e6df0	0.050397813
49	0x3db71780	0.08940029
50	0x3cea176b	0.02857562
51	0x3c655dc0	0.0139994025
52	0x3e1cec32	0.15324476
53	0xbc9cd64d	-0.019145155
54	0x3c4379b5	0.011930873
55	0x3e4d0f1c	0.20025295
56	0x3d53a5c1	0.051671747
57	0xbec3608b	-0.38159594
58	0xbd20e1d6	-0.039277874
59	0xbde0072b	-0.10938867
60	0x3dac6b25	0.08418874
61	0x3eeb3214	0.45936644
62	0xbd29a04e	-0.041412644
63	0x3d9532b6	0.07285063
64	0x3c97c75f	0.018527685
65	0x3da6c9e4	0.08143976
66	0x3d7a5649	0.061117444
67	0x3e50418c	0.20337504
68	0xbdee4a5c	-0.11635277
69	0x3dd60069	0.10449297
70	0xbe42367c	-0.18966097
71	0x3d84e3e0	0.06488776
72	0xbd4987a5	-0.049201626
73	0x3dca9cb2	0.098931685
74	0xbc8ee5de	-0.017443594
75	0xbd2c969d	-0.042135824
76	0xbe511bc4	-0.20420748
77	0x3d147d1b	0.036252122
78	0xbccfbee7	-0.025359584
79	0x3d2bede1	0.041974906
80	0xbd2d5453	-0.042316746
81	0x3e09f6d3	0.13473062
82	0x3d2efc6c	0.042721197
83	0x3ee895a0	0.45426655
84	0xbdb63895	-0.08897511
85	0x3d43faa4	0.04784645
86	0x3d484f79	0.048903916
87	0x3d2e0985	0.042489547
88	0x3c0d8593	0.008637804
89	0x3e5d3348	0.21601593
90	0xbd0b9012	-0.034072943
91	0x3c186b3a	0.009302909
92	0x3d816ba9	0.06319363
93	0x3d57601e	0.0525819
94	0xbdab6760	-0.083693266
95	0x3d94f0eb	0.07272514
96	0xbb74b34d	-0.0037338317
97	0x3d8c5287	0.06851678
98	0x3dfba8f4	0.122880846
99	0x3e5338ee	0.20627186
100	0xbe39551a	-0.1809887
101	0x3e618f4d	0.22027321
102	0xbe570a70	-0.21000075
103	0x3dbc2d84	0.09188369
104	0x3e25cb18	0.16190755
105	0x3c815f5f	0.015792547
106	0xbd4f5679	-0.050619576
107	0x3dc7d8d8	0.097581565
108	0x3cddabb5	0.027059415
109	0x3daa393c	0.08311698
110	0x3e00ed16	0.12590441
111	0x3dc4c7c1	0.096084125
112	0x3e1a563d	0.1507196
113	0x3dc507f4	0.096206576
114	0x3e3d777e	0.18502614
115	0x3d2cf757	0.04222807
116	0x3e1d08a8	0.15335333
117	0x3deaedfe	0.11471175
118	0x3db8fa5e	0.09032129
119	0xbe2e0968	-0.16995776
120	0x3dc4001e	0.09570335
121	0x3ea0a93b	0.31379113
122	0x3e2d50cc	0.16925353
123	0x3e1f8a0c	0.15580004
124	0x3dee4949	0.11635072
125	0x3e36ec2e	0.17863533
126	0x3cc0ac1b	0.023519566
127	0x3e404e9f	0.18779992
128	0x3d8d8963	0.0691097
129	0xbdc2cbf7	-0.095115595
130	0x3d95dd99	0.07317657
131	0xbe0a4cc3	-0.13505845
132	0x3d974cfc	0.073877305
133	0x3e161f7f	0.14660452
134	0x3dcc2bf2	0.099693194
135	0x3dccfa12	0.100086346
136	0xbc8f2616	-0.017474215
137	0xbc1ce72c	-0.0095766
138	0x3e2b5624	0.16732079
139	0xbbe0405b	-0.0068436093
140	0x3dadd1fc	0.08487317
141	0x3daa0f31	0.08303679
142	0x3dc2edce	0.09518014
143	0xbea9c32f	-0.33156726
144	0x3eb96062	0.36206347
145	0x3d853c00	0.06505585
146	0xbd46c3e3	-0.048526656
147	0xbe0b45f5	-0.13600905
148	0x3cc41e52	0.02394024
149	0x3dd28cb0	0.1028074
150	0xbdd4ccd9	-0.10390634
151	0xbce2f800	-0.027706146
152	0xbe56e7ef	-0.20986913
153	0xbe15e425	-0.14637811
154	0xbd02f42f	-0.031971153
155	0xbdaea033	-0.08526649
156	0x3d0e808e	0.034790568
157	0xbe67ecc1	-0.22648908
158	0x3e453c5f	0.19261311
159	0xbcf37aa2	-0.029721562
160	0xbc6e39a1	-0.014540107
161	0xbcf49131	-0.029854389
162	0xbdf4664c	-0.11933574
163	0xbe7529a5	-0.23941667
164	0x3e77791f	0.24167298
165	0x3de28afb	0.11061665
166	0xbd4a5e40	-0.04940629
167	0x3df63c8f	0.120232694
168	0xbd4be33c	-0.049777254
169	0x3c1880d5	0.00930806
170	0x3de6464a	0.11243875
171	0xbd76e7f9	-0.06027982
172	0xbe6aac05	-0.22917183
173	0x3dc8a019	0.09796161
174	0x3ee90e05	0.4551851
175	0x3e1310f7	0.1436194
176	0xbd1d3531	-0.038380805
177	0xbd6a9b50	-0.057277024
178	0xbd32a2e4	-0.043612376
179	0xbd1f1d76	-0.038846456
180	0x3db18f3c	0.08669898
181	0xbdd0f3b8	-0.10202736
182	0x3e14c63a	0.14528742
183	0xbda49f22	-0.08038165
184	0xbde19528	-0.110147774
185	0x3d393b4a	0.045222558
186	0x3e241382	0.16023067
187	0x3e0d09d1	0.13773276
188	0x3c871947	0.016491545
189	0x3c862bcf	0.016378311
190	0x3e9a1b92	0.3009916
191	0x3cd71e3c	0.026259534
192	0xbc43b472	-0.011944877
193	0x3d3b2562	0.045689948
194	0xbd08e288	-0.033419162
195	0xbc09eea5	-0.008418714
196	0x3d96efda	0.07369967
197	0x3eb2ce82	0.34923178
198	0xbd91fbb1	-0.071280845
199	0xbdfaeb1f	-0.12251877
200	0x3e7e4a15	0.24832948
201	0x3d22d3e4	0.039752856
202	0x3eb1cdbd	0.34727278
203	0xbc80bc2f	-0.015714733
204	0x3e249836	0.16073689
205	0x3e2b31fd	0.16718288
206	0xbe41c2d0	-0.18921971
207	0xbdb7d6c9	-0.08976514
208	0x3ea60023	0.3242198
209	0xbdc3006a	-0.09521563
210	0xbd101c0a	-0.03518299
211	0x3d1d162c	0.038351223
212	0x3d92e644	0.07172826
213	0xbe4fadaa	-0.20281091
214	0xbddf4a1f	-0.10902809
215	0xbb178a36	-0.0023123152
216	0x3cf9f529	0.03051241
217	0x3e03e6ea	0.12881055
218	0xbe093316	-0.13398394
219	0xbd5fcf3f	-0.054641005
220	0x3eeccccf	0.46250007
221	0xbcc38b49	-0.023870127
222	0x3d3c027a	0.0459008
223	0xbc501fb7	-0.012702874
224	0x3d2aaff8	0.041671723
225	0xbcfe8bae	-0.031072464
226	0x3d081893	0.03322656
227	0xbab02455	-0.0013438562
228	0x3cbbe0ee	0.022934403
229	0x3d962abd	0.073323704
230	0xbd6e5745	-0.058188695
231	0x3c4b3a86	0.01240409
232	0xbe539477	-0.20662104
233	0xbde2b5f0	-0.11069858
234	0x3cfebf96	0.031097215
235	0xbe752256	-0.2393888
236	0x3d88604b	0.066589914
237	0xbde0da9f	-0.10979199
238	0x3e13e952	0.14444473
239	0x3db977c4	0.090560466
240	0x3cb4368f	0.021998672
241	0x3e5dbfc2	0.21655181
242	0x3c88a76e	0.0166814
243	0xbe11d149	-0.14239992
244	0x3d522727	0.05130687
245	0x3bb29872	0.005450302
246	0xbe3a0287	-0.18165027
247	0x3c9ce8b8	0.019153938
248	0x3dc92f48	0.09823471
249	0xbd472aa9	-0.04862467
250	0xbdb1ac20	-0.08675408
251	0x3db9dbf1	0.090751536
252	0x3dc83888	0.097764075
253	0xbd8495be	-0.064738736
254	0x3d60c8de	0.054879062
255	0xbd9d7a68	-0.07689363

start_layer.weight f4 [50, 2]
0	0xbca2fcde	-0.019895967
1	0x3f22cf02	0.6359712
2	0xbf04e026	-0.51904523
3	0xbeed5dc2	-0.46360594
4	0xbe51a683	-0.20473675
5	0x3de11194	0.10989681
6	0xbc25e318	-0.010124944
7	0x3f292dac	0.66085315
8	0xbd950d7b	-0.07277962
9	0x3d790c39	0.060802672
10	0xbe3ee1d0	-0.18640828
11	0xbe5e0b4f	-0.21684001
12	0xbf03219c	-0.5122316
13	0xbedf9df1	-0.43675187
14	0xbe9575d8	-0.2919147
15	0xbd8e8aa2	-0.06960036
16	0x3e948355	0.29006448
17	0x3ebe2b8a	0.37142593
18	0xbece3dc7	-0.40281507
19	0xbe1e4238	-0.15454948
20	0x3e63493f	0.2219591
21	0x3f2251ee	0.63406265
22	0xbe17426a	-0.14771429
23	0x3f0fbb0a	0.56144774
24	0xbdcf1975	-0.101122774
25	0xbcbd8665	-0.023135373
26	0x3f05b3ce	0.52227485
27	0xbf2b633d	-0.669483
28	0xbec47e16	-0.38377446
29	0xbd9c5a51	-0.07634414
30	0xbe89d0f5	-0.26917234
31	0x3f0aa0e3	0.54151744
32	0xbefa9180	-0.48939133
33	0xbe993979	-0.2992666
34	0xbf11555c	-0.56770873
35	0xbed1c6e3	-0.4097205
36	0xbecdff9b	-0.40234074
37	0x3f0d2940	0.5514107
38	0x3e92e0cc	0.2868713
39	0x3ea5df9c	0.32397163
40	0x3cbe0f42	0.023200635
41	0xbecff6f0	-0.40618086
42	0x3d015810	0.031578124
43	0xbf73a912	-0.95179856
44	0xbf019700	-0.5062103
45	0xbe89da88	-0.2692454
46	0x3ee145d0	0.43998575
47	0x3e8b510f	0.2721028
48	0xbe85f3eb	-0.26162657
49	0xbe1e829a	-0.15479508
50	0x3ef97378	0.48720908
51	0x3f322c00	0.6959839
52	0x3e932f5e	0.28747076
53	0xbc3b1551	-0.011418656
54	0x3eff6d44	0.4988805
55	0xbebce57c	-0.36893833
56	0x3dce021f	0.10058998
57	0xbf3873ce	-0.72051704
58	0xbeece0c6	-0.4626524
59	0xbef36d56	-0.47544354
60	0x3ea3fccd	0.3202881
61	0x3e7162e0	0.23572874
62	0xbecb212b	-0.39673743
63	0x3e7374a8	0.2377497
64	0x3ea6688f	0.32501647
65	0xbddce104	-0.10785106
66	0x3cc61014	0.024177589
67	0x3e54c232	0.20777205
68	0x3eb2122d	0.34779492
69	0x3f154aaf	0.58317083
70	0xbf05b110	-0.522233
71	0xbef3611c	-0.47535026
72	0x3e15647a	0.1458911
73	0x3f0527b2	0.52013695
74	0x3f1a8391	0.60357004
75	0x3ef6394b	0.48090586
76	0x3dc4156b	0.09574398
77	0xbf4a4842	-0.79016507
78	0x3d83089c	0.063981265
79	0xbf019a62	-0.50626194
80	0xbf1c6c77	-0.61103004
81	0x3f468ef8	0.77561903
82	0x3f006525	0.50154334
83	0xbf3547f9	-0.70812947
84	0x3e006b43	0.12540917
85	0xbe0f1535	-0.13972934
86	0xbda78978	-0.08180517
87	0xbee3d96e	-0.44501823
88	0x3e59c0d6	0.21264967
89	0xbee3bc72	-0.4447971
90	0x3db48aef	0.08815562
91	0x3e8313f5	0.25601164
92	0x3ecee3de	0.40408224
93	0x3e257e5b	0.16161482
94	0xbf1c2e20	-0.6100788
95	0xbf4f336e	-0.8093785
96	0x3eae9a32	0.34102017
97	0x3d847755	0.06468073
98	0xbf3a9544	-0.7288401
99	0xbf01730e	-0.50566185

start_layer.bias f4 [50]
0	0x3f1018cd	0.56287843
1	0x3ed78d46	0.4209997
2	0xbeb9addf	-0.36265466
3	0xbe74ec8a	-0.23918357
4	0xbf33ebfd	-0.70281965
5	0xbc9ecab0	-0.019383758
6	0xbf0ffb72	-0.5624305
7	0xbf1389a8	-0.5763192
8	0xbd0d6a81	-0.0345254
9	0x3dd6491f	0.104631655
10	0xbea731ed	-0.32655278
11	0x3eeb9607	0.460129
12	0xbee60fe1	-0.4493399
13	0x3f214b96	0.6300596
14	0x3effcd3f	0.49961278
15	0xbf2152fb	-0.63017243
16	0xbe4b2f1f	-0.19842194
17	0xbc25f8d7	-0.010130129
18	0x3da2fe14	0.07958618
19	0x3e1e9da1	0.15489818
20	0x3e9ec405	0.31008926
21	0xbc4915bd	-0.012273249
22	0xbebece39	-0.3726671
23	0x3ea05382	0.3131371
24	0xbf38dc8a	-0.72211516
25	0xbed838a9	-0.42230728
26	0xbe3f4a15	-0.18680604
27	0xbeb53308	-0.35390496
28	0xbe9456c2	-0.2897244
29	0xbf1f986b	-0.62341946
30	0xbe1aaee9	-0.15105785
31	0x3e06ad6c	0.13152093
32	0xbee89dfb	-0.4543303
33	0xbdd187c7	-0.102309756
34	0x3f077ee1	0.52927977
35	0xbdf6cced	-0.12050805
36	0xbcd4b24f	-0.02596393
37	0xbd9fe4c6	-0.07807307
38	0x3e0e8c3d	0.13920684
39	0x3ef924d5	0.48660913
40	0x3f1db882	0.6160966
41	0x3edb45d6	0.42826718
42	0x3f341220	0.70340157
43	0x3c7d2710	0.015451208
44	0xbf438ef7	-0.7639002
45	0xbf20595e	-0.62636364
46	0x3f007b5e	0.50188243
47	0xbd8f6897	-0.07002371
48	0xbeb694c8	-0.35660386
49	0xbf1511ab	-0.58230084

end_layer.weight f4 [1, 50]
0	0xbf003861	-0.5008603
1	0xbe0e39ed	-0.13889284
2	0xbe87d594	-0.26530135
3	0x3de6f31e	0.1127684
4	0x3dc16d96	0.0944473
5	0xbe00b2d3	-0.12568216
6	0x3e4819af	0.19541048
7	0xbe4e24e5	-0.20131262
8	0xbf26df42	-0.65184414
9	0xbdfb6b1b	-0.12276288
10	0xbdadf97c	-0.08494851
11	0xbdc21ed9	-0.0947854
12	0xbe529dab	-0.20567958
13	0xbe5f0abe	-0.21781442
14	0xbea43539	-0.32071856
15	0xbe3a2b4b	-0.18180577
16	0xbf0a09b2	-0.53921044
17	0x3daf17f9	0.08549494
18	0xbe614e8f	-0.22002624
19	0xbd3c42dc	-0.0459622
20	0x3e1ac56f	0.15114377
21	0xbdb8aa61	-0.09016872
22	0x3e2e3212	0.17011288
23	0x3e93e0e5	0.28882518
24	0xbe6c178a	-0.23055854
25	0x3e046dd0	0.12932515
26	0xbda625c1	-0.0811267
27	0xbe9313b6	-0.28725976
28	0x3e159017	0.14605747
29	0xbe5ab39b	-0.21357577
30	0x3ee7a7ef	0.4524531
31	0xbe8246f0	-0.25444746
32	0x3e573820	0.21017504
33	0x3d0af06c	0.03392069
34	0x3dda6a58	0.10664815
35	0x3deff30b	0.11716279
36	0xbeef3a5e	-0.46724218
37	0xbee82fb4	-0.45348895
38	0xbee3c6c7	-0.44487593
39	0x3dbced47	0.092249446
40	0x3e1fd1e3	0.15607409
41	0x3e0c1d0a	0.13682953
42	0xbec56c27	-0.38559076
43	0x3edab7be	0.4271831
44	0xbdecb104	-0.115572006
45	0xbe36e4cf	-0.17860721
46	0xbf244cb9	-0.6417957
47	0x3e093b1a	0.13401452
48	0xbe903169	-0.28162697
49	0xbe229ae3	-0.15879397

meta_layer_1.weight f4 [50, 3]
0	0xbea3c1a8	-0.31983685
1	0xbde6ad0b	-0.11263474
2	0x3e94b3e5	0.290435
3	0xbf127e27	-0.57223743
4	0x3ea1eda6	0.31626624
5	0x3ec5595e	0.38544744
6	0x3e9bf576	0.3046071
7	0x3ebef23e	0.3729419
8	0x3f0a843a	0.5410801
9	0xbe9bfd45	-0.30466667
10	0xbea20482	-0.31644064
11	0xbebdb864	-0.3705474
12	0x3d0db119	0.03459272
13	0xbeb48ce2	-0.35263735
14	0x3d486553	0.048924755
15	0xbcc08068	-0.023498729
16	0xbed23546	-0.4105627
17	0x3e195738	0.14974678
18	0xbe9cb922	-0.30609995
19	0x3dca78e2	0.09886338
20	0x3e90ef7d	0.28307715
21	0xbd037d1a	-0.032101728
22	0xbe20a98c	-0.15689677
23	0xbdb5d06d	-0.08877645
24	0xbcdb76f1	-0.026790114
25	0x3e0561b4	0.13025552
26	0x3ec38046	0.38183802
27	0xbf0b1946	-0.5433544
28	0x3f026cc0	0.5094719
29	0x3f139a80	0.57657623
30	0xbea1d8af	-0.3161063
31	0x3e9ef895	0.31049028
32	0x3e11be09	0.14232649
33	0xbecbbfb3	-0.39794692
34	0x3cd6a7c4	0.026203044
35	0xbe10ac55	-0.1412824
36	0x3ef1a848	0.471987
37	0xbe7a344d	-0.24434014
38	0xbde7791a	-0.11302395
39	0x3ef0bc5f	0.47018716
40	0xbea28d3c	-0.31748378
41	0xbf0794f9	-0.5296169
42	0x3ef69061	0.48157027
43	0x3d903046	0.070404574
44	0x3e5d8255	0.21631749
45	0x3e90d267	0.28285524
46	0xbe786d55	-0.24260457
47	0x3e1e8883	0.15481763
48	0x3cc21886	0.023693334
49	0x3c85862b	0.016299328
50	0x3e923883	0.2855874
51	0xbedc537c	-0.43032444
52	0x3e1a8e48	0.15093338
53	0x3ef97e28	0.48729062
54	0xbe6a754f	-0.22896312
55	0x3f09c92c	0.5382259
56	0xbdb4f406	-0.08835606
57	0xbe93a52e	-0.2883696
58	0x3cce3347	0.025170935
59	0x3ebd017d	0.36915198
60	0x3caa296d	0.020771706
61	0xbecb9df6	-0.39768952
62	0x3eb2eb27	0.34945032
63	0x3e81e38f	0.25368926
64	0xbeceaea2	-0.4036761
65	0x3dac3aa7	0.084096245
66	0x3cadea18	0.021229789
67	0x3df6ce00	0.1205101
68	0xbd762ec3	-0.06010319
69	0x3ee49bee	0.44650215
70	0xbee85762	-0.45379168
71	0xbd1a0c7d	-0.037609566
72	0x3e930cf8	0.28720832
73	0xbe822b9f	-0.25423905
74	0xbd2bb7f4	-0.04192348
75	0xbf0e84ea	-0.5567156
76	0x3957db59	0.00020585711
77	0x3cc7e64e	0.02440181
78	0xbc984203	-0.018586164
79	0xbf1057a6	-0.5638374
80	0x3e81efd6	0.25378293
81	0xbca7ab23	-0.020467347
82	0x3f0c0191	0.5468989
83	0x3f0c0bfc	0.54705787
84	0x3eff457b	0.49857697
85	0x3eef5978	0.46747947
86	0x3ee70d13	0.45127162
87	0x3cab290f	0.020893602
88	0x3e859954	0.26093543
89	0xbe2df79c	-0.16988987
90	0xbcee8136	-0.029114347
91	0xbed25c3d	-0.41085997
92	0xbd928ba4	-0.071555406
93	0x3ca67234	0.020318128
94	0xbdbcb5d2	-0.09214367
95	0xbf086c0f	-0.53289884
96	0x3e8e9def	0.2785487
97	0xbd79c6c5	-0.060980577
98	0xbe722827	-0.2364813
99	0xbe960dcd	-0.29307404
100	0xbe748f7c	-0.2388286
101	0x3eb1813a	0.34668905
102	0x3e90e83b	0.28302178
103	0xbd891e92	-0.06695284
104	0xbe5922fa	-0.21204749
105	0xbc868d06	-0.016424667
106	0xbec29e07	-0.3801119
107	0x3f137b9f	0.57610506
108	0xbed34a91	-0.41267827
109	0x3e839c34	0.2570511
110	0xbf006428	-0.50152826
111	0xbed335f6	-0.41252106
112	0xbf10fe74	-0.56638265
113	0xbe9aba57	-0.3022029
114	0xbefe8280	-0.4970894
115	0xbea692cb	-0.3253387
116	0xbdfdf020	-0.12399316
117	0x3e9f8d9f	0.31162736
118	0xbe80db85	-0.2516748
119	0x3eaf2732	0.3420959
120	0xbed24299	-0.41066435
121	0xbef8934b	-0.48549876
122	0xbeeb5fa6	-0.4597141
123	0xbef3da34	-0.47627413
124	0x3e596f26	0.21233806
125	0x3ed60d37	0.41806957
126	0x3cb70188	0.022339597
127	0x3d50ee29	0.051008377
128	0x3ef73998	0.48286128
129	0xbe830d37	-0.2559602
130	0x3ea6a6d9	0.3254917
131	0xbe8c9e52	-0.2746454
132	0x3ca13e47	0.019683016
133	0xbd882286	-0.0664721
134	0x3ef5c102	0.47998816
135	0xbd0fa268	-0.035066992
136	0x3eb5c2ea	0.3550027
137	0xbd393ffc	-0.045227036
138	0xbeca3279	-0.39491633
139	0xbe7c138a	-0.24616829
140	0xbf06b6b7	-0.5262255
141	0x3ec456a7	0.3834736
142	0x3e652113	0.22375898
143	0xbedec950	-0.43512964
144	0xbea68cde	-0.32529348
145	0x3ea87741	0.32903484
146	0x3ed58495	0.41702715
147	0x3ebafd0f	0.36521193
148	0x3eb9bcf4	0.36276972
149	0xbe323646	-0.17403516
